prompt_module/save_model/zheng_model/10000_max_test/0.008_0.1/best_1.pt (torch, 67708 bytes, 36 tensors)

convs.0.apply_func.0.weight f4 [32, 256]
000000 cd 53 f5 b9 2b 54 09 3d e3 b2 52 bd 4d 66 3c bd
       -0.00046792478 0.033527534 -0.05144013 -0.045996
000010 c1 32 c5 bc b9 4b 89 3c 0d 4f a2 ba 9b fa 4a 3d
       -0.024072053 0.01675974 -0.0012383178 0.049555402
000020 3d bf b5 bb 19 7b 87 3c 79 bb 9a bc 3d 48 49 bc
       -0.005546479 0.01653819 -0.018888222 -0.012285289
000030 85 91 74 bd 1f 8b 29 bd b5 0e d3 bc cd ba 17 3b
       -0.05970909 -0.04139244 -0.025763849 0.0023152113
000040 2d 69 ca 3c e5 9a 19 3d 59 8d 2d bd c9 f4 de bc
       0.024708355 0.037501235 -0.042371128 -0.027216332
000050 65 f7 b9 3c 1b 94 54 3d 15 bd 52 bc 29 91 3f 3d
       0.022700975 0.051899057 -0.0128624635 0.046769295
000060 0d 0d 25 bc dd b4 d8 3b 17 cd 67 3d 9b 7b 6d bd
       -0.010073912 0.0066133575 0.056592073 -0.057979207
000070 33 29 21 bd ad 9e 81 bc a9 93 c7 bc f5 2e 5d 3d
       -0.03934593 -0.015822733 -0.024362402 0.05399986
000080 e7 ee 25 bd 8d b0 eb bc e7 d9 32 bd 43 c2 6f bd
       -0.04051104 -0.02877071 -0.04366484 -0.05853487
000090 d1 6f 15 bd 6b 0e 5c 3d 89 76 e4 3c cd 26 f8 3c
       -0.03648359 0.053724688 0.027888553 0.03029194
0000a0 0d 6a 57 3b 07 3f 03 bd 8d 3e 2d 3c 6b 06 6f bd
       0.0032869608 -0.03204253 0.010573995 -0.05835573
0000b0 e7 f9 38 bd 93 f9 03 bd f3 84 21 3d f3 18 16 3d
       -0.0451602 -0.032220434 0.03943343 0.036644887
0000c0 95 11 e3 bc ed ca 13 bb 0d ba 23 3d 4f 7f 7e 3d
       -0.027718345 -0.0022551373 0.039972354 0.06213313
0000d0 f1 33 cb 3c 95 55 0a 3c cb a4 2b 3d 8d bb 16 bd
       0.024805041 0.008443256 0.041905206 -0.036799956
0000e0 c5 d0 3e 3c 39 7a 46 bd e5 6d 31 bd 9f 3e 04 bd
       0.011646454 -0.048456404 -0.043317694 -0.032286283
0000f0 59 aa e7 3c c5 e7 cd 3c 37 a4 17 bd 95 ad 9a 3c
       0.02827947 0.02513493 -0.03702184 0.018881598
000100 3b 89 0c 3d ed 3e 01 bc 0d 64 1c 3b cd 43 6d 3c
       0.03431056 -0.007888538 0.0023863346 0.014481497
000110 cd d0 1e 3d 15 cf 75 3d 63 47 45 bd b9 a1 bb bc
       0.038773347 0.060011942 -0.048163783 -0.022904264
000120 65 38 c9 3c 9d 1b 54 3d b5 c5 5e 3d ef e1 61 3d
       0.024563024 0.051784147 0.054387767 0.055147108
000130 45 ca 4b 3c c5 9c 5e bd 5d 66 bc 3b 79 27 20 bd
       0.0124383615 -0.054348726 0.0057495073 -0.039100144
000140 59 94 6e bd 0b 74 63 3d bd a6 42 3d cb 5d 7f bd
       -0.058246944 0.05553059 0.047522295 -0.062345307
000150 d5 a9 3f 3c 95 80 2c bc 85 82 28 bc e9 5e ea bc
       0.011698206 -0.010528703 -0.0102850245 -0.02860971
000160 59 e4 c4 3c 01 a1 17 bd a9 b1 bb 3c e3 75 01 3d
       0.024034666 -0.03701878 0.022911863 0.031606566
000170 29 43 37 3d 15 71 bf 3c 17 5f 7d bd cd 10 26 bd
       0.044741783 0.023369351 -0.061858263 -0.040543366
000180 05 a6 ff 3c e5 52 56 3c 63 b3 47 bd b5 68 13 bd
       0.031207094 0.013081287 -0.04875506 -0.03598853
000190 bf d4 70 3d 21 7f 2c 3d 7d 3e df bc a1 dc 80 bc
       0.05879664 0.042113427 -0.027251476 -0.015730204
0001a0 45 dd 73 bd 4d 3e 93 ba 45 c8 40 bd 6f 77 45 bd
       -0.05953719 -0.0011233777 -0.047065992 -0.048209604
0001b0 ed af 61 bb 6d bf 19 3c c1 ad d1 bc 65 e7 17 3d
       -0.0034437135 0.009384018 -0.025595548 0.03708591
0001c0 05 c9 1b bd 35 49 68 3d 9d 6f 2f 3d 31 e1 57 bd
       -0.038033504 0.05671044 0.042831052 -0.052704994
0001d0 55 db 7e bc 4d d2 38 3b e5 66 15 3c 9d dd 72 3c
       -0.0155552225 0.002820152 0.00911877 0.014823345
0001e0 29 ec c8 3c ad 59 75 3b 99 d1 f9 bc a1 45 f2 3c
       0.024526672 0.0037437484 -0.030495452 0.029574217
0001f0 23 91 75 bd 6d bb 17 bd 09 2b 80 bc b9 66 f9 bc
       -0.059952866 -0.037043978 -0.01564552 -0.03044449
000200 29 1d b3 bc 87 d2 51 bd cd d1 59 bc c5 e2 5a 3c
       -0.02186449 -0.051226165 -0.013294649 0.01335973
000210 43 c6 26 bd 0d 34 52 bb cd 41 37 3d bd 88 d2 bb
       -0.04071642 -0.0032074482 0.044740487 -0.006424992
000220 4d ac e3 3a 8d ad b0 bb dd 3c 4f 3c 2d c6 22 3d
       0.0017370075 -0.0053917826 0.012648788 0.039739776
000230 87 7e 72 3d d3 92 22 3d 91 0c 73 3d 2d 1d 94 bb
       0.059202697 0.039690804 0.059338156 -0.0045200796
000240 33 f8 65 bd 0d ba f2 bc 9b 4f 2e 3d cd 6a d4 b9
       -0.056144904 -0.029629732 0.042556386 -0.00040515364
000250 a9 7c fe bc cf 2c 44 bd cd 93 6f bd b9 10 58 bd
       -0.031065302 -0.047894295 -0.058490563 -0.052750323
000260 3d b4 4f bc 23 64 0c 3d 41 67 0a 3d cf e4 76 bd
       -0.0126772495 0.034275185 0.033789877 -0.060276803
000270 fb af 1f 3d 57 52 48 bd bd 7b 58 bc e9 99 cf bc
       0.038986187 -0.04890665 -0.013213095 -0.025341945
000280 bd 3c 45 bc dd 0d 49 bc 87 b8 65 bd 11 0a 5d bd
       -0.012038407 -0.012271372 -0.056084182 -0.05396468
000290 f5 3b 20 bc 4d e1 53 3a 85 96 e8 bc 85 de c0 3c
       -0.00977992 0.00080825837 -0.028392086 0.023543606
0002a0 07 6a 66 bd 8d 36 8a bb 6f 21 61 3d 05 d7 d0 bc
       -0.05625346 -0.0042179287 0.054963525 -0.025493154
0002b0 03 2b 67 3d 05 6c b9 3c 7b 07 67 bd 41 f8 21 3d
       0.056437504 0.022634516 -0.05640362 0.039543394
0002c0 bd 53 ec bb 3d 8f e4 bc e1 b5 4c 3d 21 df 4e bd
       -0.007212131 -0.027900333 0.04997814 -0.05050576
0002d0 7d c2 db 3b 8d 64 56 bc e3 cf 36 3d d5 eb 8e 3c
       0.0067065344 -0.013085497 0.04463185 0.017446438
0002e0 99 04 f6 3c 0d d1 b4 3c cd 3e 76 bc 1d 5a 57 bc
       0.03003149 0.02207234 -0.015029621 -0.013144043
0002f0 cd f6 52 bd 19 b6 0a 3d f3 41 4b 3d 29 29 2f 3d
       -0.0515049 0.033865068 0.04962344 0.042763863
000300 79 93 34 bd 2d ae 36 3b 5d 76 34 bd 55 ec 0c bd
       -0.044085953 0.0027874813 -0.044058193 -0.03440507
000310 fd 2b 15 bd 01 f9 ae 3c 91 8d 18 bd cd b9 b2 ba
       -0.036418904 0.021358969 -0.037244383 -0.0013635695
000320 6d 4f 2c 3b d1 05 25 3d c7 83 41 bd 11 bf 2f bd
       0.0026292459 0.04028875 -0.047244813 -0.042906824
000330 09 a6 14 bd a3 2e 33 3d 99 0b b8 bc ad ee 57 3d
       -0.036291156 0.043745648 -0.022466468 0.052717853
000340 6d 24 b9 3c 0d aa 01 3c cd ec f3 b9 d5 6c 4a bc
       0.022600377 0.007914078 -0.00046525002 -0.012355049
000350 0d 7a 00 3c fd d2 69 bc cd 3d e6 b9 8d a7 02 3c
       0.007841599 -0.014271495 -0.00043915064 0.0079745175
000360 65 3e 48 bd 47 2d 06 bd a5 b7 4e 3d 53 c1 4f bd
       -0.04888763 -0.032758024 0.050468106 -0.050721478
000370 ed 0e 93 bb 8d 3e 7d 3d dd f3 b8 3c 8d f0 e7 3a
       -0.0044878633 0.06182723 0.02257722 0.0017695591
000380 f3 d9 5d bd f9 a1 fd 3c d5 57 36 bd 75 56 91 bc
       -0.05416293 0.030961024 -0.044517357 -0.017741421
000390 99 c8 ab bc 05 a4 17 bc 4d 36 33 3a 63 26 53 3d
       -0.020969676 -0.009255414 0.00068363996 0.05155028
0003a0 4d ab ff 3b ed 4b 65 3d fd 98 1c 3d 93 d8 21 bd
       0.007802403 0.05598061 0.03823184 -0.039513182
0003b0 21 a2 e5 3c f1 f6 34 bd 69 ff d8 bc 0d 97 96 3c
       0.02803141 -0.044180814 -0.026488977 0.018382574
0003c0 bd 0e a9 3c bf 0e 40 3d f5 d1 a4 bc cd d3 d1 38
       0.02063691 0.046889063 -0.020119647 0.000100053476
0003d0 47 cb 03 3d 27 93 77 bd 0f 15 39 3d fd b0 53 bd
       0.032176282 -0.06044307 0.0451861 -0.05168246
0003e0 cd cf 61 3a ad 18 2e bc d7 d3 06 bd a5 57 07 3c
       0.00086140336 -0.010626 -0.03291687 0.008260642
0003f0 bf b0 53 3d b5 aa 95 bc 23 fc 17 bd 51 5b bd bc
       0.05168223 -0.018269876 -0.03710569 -0.023114832

convs.0.apply_func.0.bias f4 [32]
000000 ed 90 08 bb 4e 56 73 bc 09 d7 98 3d d2 6d 4e 3b
       -0.0020838336 -0.01485212 0.0746289 0.0031498563
000010 1b 55 25 bd 33 11 34 bd 50 57 7d 3d 85 5b 02 3e
       -0.040364366 -0.043961715 0.061850846 0.12730224
000020 bd f8 12 bd 21 b0 ab 3c b1 eb b7 bd 5e cb 3f bc
       -0.035881747 0.020958008 -0.089805014 -0.011706201
000030 26 18 d0 bd c1 1a c9 bc ac d5 50 bc 7b 79 1e 3d
       -0.10160856 -0.02454889 -0.012746256 0.03869007
000040 57 1e 9c 3d 3e a2 a8 3a cd b4 a9 3c 8e 36 e1 3c
       0.07622974 0.0012865735 0.020716095 0.027491834
000050 bf 3a 94 3d 6f 26 ec bd e1 b2 a7 bd 84 15 0a bd
       0.072377674 -0.11530768 -0.08188415 -0.033711925
000060 cd fa 88 ba 16 88 cf 3c be d2 57 bb e5 59 53 3c
       -0.0010450721 0.025333446 -0.0032932009 0.0128998505
000070 cd 57 93 3b c1 4b f4 bc 84 08 71 3d 74 c5 40 bd
       0.0044965507 -0.029821279 0.05884601 -0.047063306

convs.0.apply_func.2.weight f4 [32, 32]
000000 cb de 20 be a8 99 87 bb 04 cc 0e 3e 74 20 31 3d
       -0.15709989 -0.0041381903 0.13945013 0.04324384
000010 fd 9c ee 3d 7b c6 0f bd 15 16 ad 3d 64 24 26 3e
       0.11651037 -0.035101395 0.084514774 0.1622482
000020 c2 1b e0 bd 8f 06 90 3c bb f9 b4 bd 88 a3 06 be
       -0.109427944 0.017581252 -0.08836695 -0.1314832
000030 45 fd f8 bd a3 c1 b1 3d 8a 7b 6d bd 75 f2 88 3d
       -0.12157682 0.086795114 -0.057979144 0.0668687
000040 bb f1 84 3c 5e 47 e0 3d e9 be ce bd b7 63 80 bd
       0.016228547 0.10951112 -0.10095007 -0.06269019
000050 98 b4 83 bd 42 33 13 be 52 7e fb 3d 5a 29 d6 3d
       -0.0643093 -0.14375022 0.12279953 0.10457106
000060 89 f1 82 bd 76 29 10 be ce 1a 36 bd 0d 1e f0 bd
       -0.063937254 -0.14078316 -0.044459157 -0.11724482
000070 8a d7 56 bd 56 3f d4 bb be 78 cf ba 21 b2 18 bd
       -0.052451648 -0.006477277 -0.0015828831 -0.037279252
000080 59 46 14 be 7e f5 2a 3d 45 90 b0 3d 32 4d 09 3c
       -0.1447996 0.041738026 0.08621267 0.008380221
000090 4e f5 cd bc 22 d1 0c be f7 1c 6c 3d ad e7 29 bd
       -0.025141384 -0.13751653 0.05764481 -0.04148071
0000a0 5b 88 a5 bd 8c 63 f8 3d db 45 d5 3d 2e 09 92 3d
       -0.08082648 0.12128362 0.104137145 0.07130657
0000b0 58 c1 f9 3d 84 d3 d6 bd 94 e9 56 3e 31 cf ef bc
       0.121950805 -0.10489562 0.2098754 -0.029273601
0000c0 9c 9c 62 be fa 1d a9 3d aa d9 e8 bd 30 08 aa bd
       -0.22130054 0.08257671 -0.11369641 -0.08302343
0000d0 a8 63 2b bd ee 5e b8 3d 11 0f e8 3c 37 a7 da bd
       -0.041843086 0.090024814 0.028327497 -0.10676425
0000e0 fb 82 f6 bd 22 64 cb 3b 82 a6 c4 bd b4 be 45 3d
       -0.12036701 0.006207005 -0.09602071 0.04827757
0000f0 c8 d6 1d 3e 6b c4 7f bd 55 ac 58 be 80 db 72 bd
       0.15413964 -0.06244318 -0.2115949 -0.059291363
000100 46 54 60 bc ca 15 f3 bb a3 78 39 3e f7 e1 7c bd
       -0.013691967 -0.007418369 0.18112426 -0.061738934
000110 74 15 17 3e 76 97 a9 3d 1c 05 f3 3d 62 5e e9 bd
       0.14754277 0.08280842 0.11866209 -0.11394955
000120 0b 34 04 3e 41 ac 66 bd 08 6a 96 bc 2e ad 0d bd
       0.12910478 -0.056316618 -0.018361107 -0.034588985
000130 5a 75 9b 3d 39 b6 b9 3d f7 9b 1c be b2 26 ed 3d
       0.075907424 0.09067959 -0.15293871 0.11579646
000140 43 22 01 3d 9e 84 db 3d 9a 90 07 b9 06 2e 38 bd
       0.031526815 0.10718654 -0.00012928472 -0.044965766
000150 eb d0 11 3e b5 f6 2b 3e 3f bf c0 3d d6 78 c3 3b
       0.14239852 0.1679333 0.09411477 0.0059653325
000160 98 1a 1e 3b f6 80 7f 3d 3e 16 62 bd 56 88 19 3e
       0.0024124738 0.062378846 -0.055196993 0.14993414
000170 92 75 1c 3e 27 4c dd 3e e7 b3 42 3e b9 0b c7 3c
       0.15279225 0.43222162 0.1901394 0.024297582
000180 0e 9c 08 3e 16 45 be 3c 31 cf 32 3e f4 6d 7f bd
       0.1334078 0.023226302 0.1746185 -0.06236072
000190 30 dd 31 be 55 9c 15 3e 17 55 79 3d ec 38 f9 bd
       -0.17369533 0.14610417 0.060872164 -0.1216906
0001a0 f0 3c 9d 3d 9a b5 1a bd 80 4c ed 3d 6b 5f 75 3e
       0.076776385 -0.037770845 0.11586857 0.2396218
0001b0 94 33 ca 3d 1e ba cf 3b db de a8 3d 33 a0 d8 bd
       0.09873119 0.0063393256 0.08245631 -0.105774306
0001c0 39 44 6b 3d ce 60 6d 3d e7 3e 0d 3e f3 9e 83 3d
       0.05743811 0.05795365 0.13793527 0.064268015
0001d0 84 8c 38 3e 2d 8f 73 3d ea 91 23 3c af 8e ed bd
       0.18022352 0.059462715 0.009983519 -0.1159948
0001e0 4f 93 ad bd b1 24 01 3e 9e 8c de 3d 14 f9 fb 3d
       -0.084753625 0.12611653 0.10866664 0.12303367
0001f0 d3 4c ec 3d 0c f0 ac bd ea 53 93 3d 19 07 b0 bb
       0.115380906 -0.08444223 0.0719374 -0.00537194
000200 70 7c ea bc f8 8d 13 3d ee 9e 1a 3e 4a 24 4f 3e
       -0.02862379 0.036024064 0.1509969 0.20228687
000210 63 a7 18 3e 0a 38 3d bd e8 b9 56 3d 1a c6 c1 3d
       0.14907603 -0.04619602 0.052423388 0.09461613
000220 5d a7 0a 3e fc 40 64 3c df d1 55 be 8c a1 b4 3d
       0.13540407 0.013931509 -0.2088084 0.08819875
000230 2e 18 10 be 18 08 bc 3c ec 1c 0c 3e 0c 07 c8 3d
       -0.14071724 0.022953078 0.13682908 0.09766969
000240 cf 54 41 3e 51 ec 77 3e 33 90 25 be 7c 4d 4b 39
       0.18880008 0.24211241 -0.16168289 0.00019388454
000250 49 46 9e 3d d3 28 c5 bb 3f bf ba bd d8 d9 57 3e
       0.077282496 -0.0060168295 -0.091185085 0.21079195
000260 d0 47 d9 bd f3 32 12 be 6a 62 25 be 5c 23 c5 bd
       -0.106094 -0.14277248 -0.16150823 -0.09625885
000270 4a 12 80 3d 34 10 bc 3e 47 6c 0c 3d 51 27 0e be
       0.06253488 0.36731112 0.03428295 -0.13882186
000280 2c 48 06 3e 9f 2b 56 bc 0d aa 82 bd 46 2f ab bb
       0.13113469 -0.0130719235 -0.06380091 -0.0052241413
000290 c6 8e 9d 3d d8 ff b4 bc 5b 97 b4 3c 0b c4 d7 3c
       0.076932475 -0.022094652 0.022044828 0.026338598
0002a0 56 94 ee bd 14 c6 22 3e bb e8 ef 3d 50 d5 09 bc
       -0.116493866 0.15895873 0.11714312 -0.008412674
0002b0 09 41 e9 3d 32 f3 47 bd 29 c1 1a bd 1a 71 d7 3c
       0.113893576 -0.048815913 -0.037781868 0.026299048
0002c0 ee 46 06 be d9 4b 2f bd 3f e3 f0 bd bb 62 78 bc
       -0.13112995 -0.042796943 -0.11762094 -0.015160258
0002d0 ee fe 8e bd 30 93 32 bc 83 87 b0 bd e2 41 b5 3d
       -0.06982218 -0.01089935 -0.08619597 0.08850457
0002e0 f2 17 32 3d da d4 2e be f0 ad fa bd c7 35 7b bd
       0.043479867 -0.17073384 -0.12240207 -0.061330583
0002f0 35 42 6f 3d a9 4d e1 3d bf 31 56 3e d2 3c f4 bd
       0.05841275 0.110011406 0.20917414 -0.11925663
000300 7b 0b 2b 3e ea 47 2a 3e 7f 0a 10 be 98 eb 14 be
       0.16703598 0.16628996 -0.14066504 -0.14542997
000310 df 4d 0d be 7b 65 61 3b 96 fd 1c bd 35 2a 00 be
       -0.13799237 0.0034392762 -0.038327776 -0.125161
000320 dc a6 4d bd 18 c8 e2 3d b1 f6 4e bc 0d 83 bf bd
       -0.050207958 0.11073321 -0.012632058 -0.09351168
000330 13 d7 ed bd e1 28 87 3d 3d 97 62 3d 71 ec ee bc
       -0.11613288 0.06599594 0.055320013 -0.029165478
000340 9c 3a 14 be 56 c6 99 3d 64 5c c1 bd f3 8f 1e be
       -0.14475483 0.07508533 -0.0944145 -0.154846
000350 9a b0 56 3e 1a 8f 91 3d 41 ae f5 bc 67 8c 96 3d
       0.20965806 0.071073726 -0.029990317 0.07350998
000360 67 07 13 3e 67 de 20 be c8 0c 4b 3c 20 5a 76 bc
       0.14358293 -0.1570984 0.012393184 -0.015036136
000370 c9 d5 2f be f7 83 19 3e ac 1a 2b be 6d 06 c1 bc
       -0.17171396 0.14991747 -0.16709393 -0.023562634
000380 73 cb b7 3d 67 3e e6 3d 95 3c 3f bd 6e f0 15 3e
       0.08974352 0.11242371 -0.046688635 0.14642498
000390 91 9a 6c bb 3f 4a 27 be 28 bb 28 be d7 cf 04 be
       -0.003610287 -0.16336916 -0.16477644 -0.1296991
0003a0 72 73 8d ba 5b d1 12 3e d2 a4 9a bd 0b 71 e0 bc
       -0.0010791852 0.14337675 -0.07550968 -0.027397653
0003b0 76 7f f7 3d 63 82 32 bd f9 d9 9c 3d 55 68 05 3d
       0.12084858 -0.043581378 0.076587625 0.032570202
0003c0 58 17 8d bd 8d 91 ea bd f5 fa 00 3e 40 74 c2 bd
       -0.06889218 -0.11453543 0.12595733 -0.09494829
0003d0 d9 30 95 3c 33 73 7b 3d d0 50 06 3d 8b 4f 7d bd
       0.018211769 0.06138916 0.032791913 -0.061843436
0003e0 41 f1 0b bd 05 60 98 bd 69 a9 5d 3c 10 27 53 bd
       -0.034165625 -0.07440189 0.01352916 -0.051550925
0003f0 d5 ef 86 3d 02 79 ba 3d f3 be e1 3d dd 64 aa bd
       0.06588713 0.09105112 0.11022749 -0.083200194

convs.0.apply_func.2.bias f4 [32]
000000 a7 36 1e 3e 34 0c d4 bd e0 bd be 3d d6 ed 39 3e
       0.15450536 -0.1035389 0.093135595 0.18157133
000010 4a 8b dd bd 45 a0 9d bd 76 91 f7 3d fc da bf 3d
       -0.10817583 -0.076965846 0.12088291 0.0936794
000020 cb 44 e2 bd 90 9c 47 3d af 6f d6 3d bb d9 73 bb
       -0.110482775 0.048733294 0.10470521 -0.0037208635
000030 a1 1b 22 3e 27 6f dc 3d e7 5d bb 3d f0 07 d3 3d
       0.15830852 0.10763388 0.0914877 0.10304248
000040 2d b0 76 bd 63 b6 7d 3a c5 51 2f bd 78 e4 99 3c
       -0.060226608 0.0009678362 -0.04280259 0.0187857
000050 d5 3f c9 3c 4b 3e 8c bd f6 4f 1c 3d bf 4c 46 3e
       0.02456657 -0.06847819 0.038162194 0.19365214
000060 98 db 6d 3d 82 d8 5a 3e 0e e4 20 3d de 72 0c bc
       0.05807075 0.21371654 0.03927999 -0.008572308
000070 90 bb 9a 3e 64 2a 81 bd d7 35 c9 3d c9 12 19 3e
       0.30221224 -0.063069135 0.09824722 0.14948572

convs.1.apply_func.0.weight f4 [32, 32]
000000 97 59 13 be af 3d cf bc bb 3c eb 3d ab 23 f0 bc
       -0.14389645 -0.025297968 0.11486193 -0.029313883
000010 5b 6a 54 be 15 33 0b be bb 6f 2a be 69 e4 0c bd
       -0.20743696 -0.13593705 -0.16644184 -0.034397516
000020 40 54 64 3d e5 1f 8b bd 26 81 f0 bd 10 9e af bc
       0.05574441 -0.06793193 -0.11743383 -0.021437675
000030 ba 3b a9 bd b9 a0 00 bd b2 ca bb bd 52 89 4b bd
       -0.08263345 -0.031403277 -0.091695204 -0.049691506
000040 6e 39 88 bd 00 a0 cf bc a7 5d a9 bd aa ca 1c 3d
       -0.06651579 -0.025344849 -0.08269816 0.038279213
000050 84 d2 fb bd eb c9 af bd 02 ad dd bc 08 32 1d 3d
       -0.12296012 -0.08583435 -0.027060036 0.03837779
000060 b0 c2 97 3d 30 3a 50 3b 73 8d 30 bd 36 60 e5 bd
       0.074101806 0.0031772964 -0.043103646 -0.111999914
000070 e6 4f e5 bc 7b 7f 49 be d8 24 1d bd ca a1 31 3e
       -0.0279922 -0.19677536 -0.038365215 0.17346874
000080 44 88 8a bd 86 f2 d1 3d e1 97 2c be 76 b4 8a 3d
       -0.06764272 0.10251336 -0.16854812 0.067727014
000090 76 13 b9 3c d4 75 e5 bd e3 a8 32 be 61 21 02 be
       0.022592288 -0.112041146 -0.17447238 -0.12708046
0000a0 48 53 3b 3d 31 3b cd 3d 34 17 4a be 8e 55 05 be
       0.04573372 0.100210555 -0.19735414 -0.13020918
0000b0 c7 b1 98 bb 98 a1 e4 bd 07 07 45 be 8e c7 c4 bd
       -0.0046598646 -0.11163634 -0.19240962 -0.096083745
0000c0 98 ec 75 bc c4 cc 60 be dd 3f ce bd f3 e8 89 3d
       -0.015010022 -0.21953112 -0.10070775 0.06733885
0000d0 9d f3 04 3c c6 55 e8 bd 98 7c ef 3d d5 98 96 bc
       0.008114723 -0.11344485 0.11693686 -0.018383423
0000e0 b7 9a 17 3d 5c b3 cb bd a2 2a c8 bd fc 50 b0 3d
       0.037012782 -0.099463195 -0.097737566 0.086091965
0000f0 e9 ff 59 be 37 9b e4 3d c6 ed 9e bd 61 e9 d3 bd
       -0.21289028 0.111624174 -0.077601954 -0.10347248
000100 a9 f6 87 3d 36 26 94 be e2 87 49 bd 89 72 47 bd
       0.066388436 -0.28935403 -0.049201854 -0.048693214
000110 51 45 a9 3d 3b bd ab be f0 66 80 be 5b 61 8c be
       0.08265174 -0.3354281 -0.25078535 -0.27418026
000120 45 3d b2 3d fa 4a 9d 3d e9 f9 7e bd 09 40 ab 3d
       0.087030925 0.07680316 -0.06225005 0.08361823
000130 15 27 0a 3e c7 fd 8b be 66 31 19 3d 34 8e e3 3d
       0.13491471 -0.27342054 0.037400626 0.111111075
000140 33 73 e7 bd 12 07 06 be c0 03 31 bd 1a 3d 32 3e
       -0.113012694 -0.13088635 -0.043216467 0.17406121
000150 54 17 4c 3d 52 d9 95 3d f7 b4 66 be 06 78 35 be
       0.049826935 0.07316841 -0.2252997 -0.17721567
000160 bd a9 8f be 39 dc a4 3d 74 30 7c bd 7b af 85 3d
       -0.28059188 0.08049817 -0.061569646 0.06527611
000170 05 c2 57 3d 99 8b ea 3d b7 b7 c6 bb 7c 9a b4 bd
       0.052675266 0.114524074 -0.006064381 -0.08818528
000180 60 37 8b bd 98 29 79 be 76 84 65 be e7 df f2 bd
       -0.06797671 -0.24332273 -0.22413811 -0.11859112
000190 32 3d 46 be 47 cc a3 be 02 d1 1b bd 05 30 9f bd
       -0.19359282 -0.3199179 -0.038041122 -0.07772831
0001a0 16 de 5a bd f8 a7 e1 bd 4f 1a 6b be 94 eb ff bd
       -0.053434454 -0.110183656 -0.22959255 -0.12496105
0001b0 91 ae 64 be 10 ba 95 3d 52 df 8b 3d 21 f0 f0 bd
       -0.22332217 0.07310879 0.06829704 -0.11764551
0001c0 7e f1 90 bd 83 70 5a 3d 5e aa 8a bd da e4 cc bc
       -0.07077311 0.053329956 -0.06770776 -0.025011469
0001d0 f9 8a 18 be 9d 97 e0 bd f4 19 a0 bd 34 43 8d 3d
       -0.14896764 -0.10966418 -0.0781745 0.068975836
0001e0 fb 86 a1 bd 07 c6 95 3d 34 1f 7f 3e 07 67 cb 3d
       -0.078870736 0.07313161 0.24914247 0.0993176
0001f0 95 0b 20 be 8b cf dd bc f5 6a 51 bd 27 63 e7 3d
       -0.15629418 -0.027076503 -0.051127393 0.11298209
000200 78 b6 9b 3d 13 b3 68 3d fd 66 53 be b7 78 0a bd
       0.076031625 0.056811403 -0.20644756 -0.03380653
000210 a4 7a 2b be f0 11 24 be 0b fe 1d be b0 a6 eb bd
       -0.16746002 -0.16022468 -0.15428941 -0.115064025
000220 5d fe ee 3d b7 fe 1a 3d a4 11 1e be 27 c6 a1 bd
       0.1166961 0.03784057 -0.15436417 -0.07899123
000230 b5 08 0b 3d 2b 28 21 3d 93 79 8e 3d d5 d4 fb bd
       0.03394385 0.039344948 0.06956782 -0.12296454
000240 48 a2 d8 bd f7 07 45 3d 12 38 12 bc b5 37 8d bd
       -0.10577828 0.0481033 -0.008924501 -0.06895391
000250 2f 2f 3e be f8 2f 4b bd d1 39 d2 3d b2 89 f0 bd
       -0.18572687 -0.049606293 0.10264934 -0.11745013
000260 96 b5 93 bd 17 8a d9 3c e1 b0 45 be cf e4 f3 bd
       -0.07212369 0.026555104 -0.19305755 -0.11908876
000270 21 45 b1 bc 6e 88 fa bd 92 a5 c4 3d 4f ac 94 bd
       -0.021639409 -0.12233053 0.096018925 -0.07259428
000280 89 01 b4 3c d6 23 96 3c 42 12 87 bd 9b 26 34 3e
       0.021973388 0.018327635 -0.06595279 0.17592852
000290 0e d2 34 be 0f 88 93 bd 70 9a 3f bd 77 80 64 bc
       -0.17658255 -0.072036855 -0.046778142 -0.013946644
0002a0 98 69 b4 bd a2 e7 34 3c 91 8e 04 be 91 c2 da 3c
       -0.08809203 0.011041554 -0.1294501 0.026704105
0002b0 f7 a7 51 be 8d b8 71 bd c1 3e 5d 3d 69 49 68 bc
       -0.2047423 -0.059013892 0.054014925 -0.014177659
0002c0 50 df 16 be a9 02 87 bd 7a 0a b6 3d 67 dc 0d be
       -0.14733624 -0.06592304 0.08888717 -0.13853608
0002d0 2f 11 38 be 85 f5 3d bd 3e fe 27 be 7d c1 88 3c
       -0.17975305 -0.046376724 -0.1640558 0.016693825
0002e0 bf 27 05 be 9b 25 32 3d 41 30 67 3d 73 eb c0 3d
       -0.13003443 0.043492895 0.056442503 0.094199084
0002f0 be d3 02 be 2d 3c 84 bd 19 86 f9 3d 30 e7 bb bd
       -0.12776086 -0.0645679 0.1218378 -0.09174955
000300 ce 71 a5 3d 56 3f b6 3c d2 0a 6e 3d d6 b4 98 3b
       0.08078347 0.022246998 0.058115788 0.004660229
000310 93 b1 b8 3d 64 d6 96 bd 6e ce 52 be 80 7a 04 be
       0.090182446 -0.073651105 -0.20586559 -0.12937355
000320 ff 62 df bd 89 6e e3 bd bd 5f 42 3e 7c 39 2a 3e
       -0.10907554 -0.11105067 0.18981834 0.16623491
000330 93 77 f4 bd df 93 4c be 0b 00 b1 bd f2 ac e5 3d
       -0.119368695 -0.19978283 -0.08642586 0.11214627
000340 75 ea 38 3e ac f0 d8 bc d4 fc 2d be cd 75 94 bd
       0.18058188 -0.026481949 -0.16990978 -0.07249031
000350 22 50 64 3d 02 f0 09 3e 64 e9 f6 3d 80 3a b1 bc
       0.055740483 0.13470462 0.120562345 -0.02163434
000360 96 30 f5 bd 22 d7 7d 3d be 4c 06 3e a9 61 d0 3d
       -0.11972158 0.061972745 0.13115212 0.10174877
000370 86 91 a3 3c 23 5d 1c 3e 31 ac d0 3d 59 d2 81 bb
       0.019966852 0.15269904 0.10189093 -0.003961843
000380 86 30 b1 bd 61 e2 27 3d 42 85 f0 bc d0 dd e9 3d
       -0.08651833 0.040987376 -0.029360417 0.114192605
000390 8b 5b 4c 3d 03 9f a0 ba 06 fb 34 be 9d 85 de 3d
       0.04989199 -0.001225442 -0.17673883 0.108653285
0003a0 74 cd be bd b8 10 8f bd 19 18 23 3d ba 56 95 3c
       -0.09316531 -0.06985611 0.039817903 0.018229831
0003b0 b2 45 bd bd 63 af 55 bd 47 b1 c3 bd 17 7f 98 bd
       -0.09241809 -0.052169215 -0.09555297 -0.074461155
0003c0 2c 2e 5f bd 06 4e 3e bd c4 70 fd bd d5 28 88 3d
       -0.054487392 -0.046461128 -0.12375024 0.06648413
0003d0 e1 73 1f bd 14 6d 08 be c0 86 1e 3b c6 ec b8 bd
       -0.03892887 -0.1332286 0.0024189204 -0.09029536
0003e0 4c 46 34 3e 2a fc ab 3b ce dc 01 3e fd 92 4a 3e
       0.17604941 0.005248566 0.12681887 0.19782634
0003f0 14 c4 25 3e ef 3d 03 3d dc a7 09 3e 9d e9 0a bb
       0.16188079 0.032041486 0.1344294 -0.0021196373

convs.1.apply_func.0.bias f4 [32]
000000 6f 79 38 bd 2e 3e 81 3e 60 d4 96 3e 45 4e b6 3e
       -0.045037683 0.25242752 0.29458904 0.3560659
000010 e8 61 68 3e 10 6e f7 3d 42 97 ee bd 8a 06 f1 3d
       0.22693598 0.1208154 -0.11649944 0.11768825
000020 97 96 2f 3e 37 32 0f be 50 32 d5 3e 99 c4 09 3e
       0.17147289 -0.13983999 0.41639948 0.13453902
000030 34 43 c6 3c 1a ee 81 39 1d 37 20 bc 69 93 b9 3d
       0.024201967 0.00024782197 -0.009778765 0.090613194
000040 29 f1 09 3e 8a f6 8c 3e a7 ee fa bd 4a a6 23 3e
       0.13470902 0.27531844 -0.122525506 0.15981403
000050 fa 3b 90 be 50 73 1e 3d bf 53 8d bd 78 6d e3 bd
       -0.28170758 0.03868419 -0.06900739 -0.11104864
000060 2b 93 b8 3e 9d 6f 5f 3e e4 2b a8 3d e5 8a 89 be
       0.3604978 0.21819921 0.082114965 -0.2686378
000070 e7 02 a6 3d f9 55 a2 3e dc 5e 33 3d 1b 30 a6 3e
       0.08106022 0.31706217 0.043791637 0.32458577

convs.1.apply_func.2.weight f4 [32, 32]
000000 e8 65 12 ba 0a d6 81 3d 48 a7 a2 3d f4 7d b8 bc
       -0.0005584643 0.06339653 0.079420626 -0.022520997
000010 35 a4 35 3e 01 86 22 be cb 12 9b 3a 0a 89 95 bd
       0.17738421 -0.15871431 0.0011831162 -0.07301529
000020 87 95 aa 3d 93 f9 57 be 30 7b ba 3d 21 85 5f be
       0.08329301 -0.21091299 0.091055274 -0.21828128
000030 07 4c 80 bd f1 38 93 bb 98 64 57 3d 17 d1 ff bd
       -0.06264501 -0.004492872 0.052586168 -0.124910526
000040 26 c3 b8 bc 36 91 eb bd bb 70 9f bd c9 5b 08 3e
       -0.022553992 -0.11502306 -0.077851735 0.13316263
000050 4b c5 66 bd 0b d6 83 bd 31 d7 ba bd 69 45 42 be
       -0.056340497 -0.0643731 -0.09123076 -0.1897179
000060 35 91 79 bc 36 9e 5c 3e a0 14 b5 bd 05 24 4c 3d
       -0.015232374 0.21544728 -0.088418245 0.04983904
000070 98 1d cc 3d 7f 85 4d 3e e8 c1 d6 bd e3 c1 bd 3d
       0.09966582 0.20070456 -0.104862034 0.092654966
000080 db 1b db 3b db 49 72 be c0 3e 30 3e a2 f3 d4 bd
       0.0066866702 -0.23660986 0.17211437 -0.10398032
000090 16 e7 78 be e1 0d 09 be d8 1a c0 bd 2a a1 8b bd
       -0.24306902 -0.133842 -0.0938012 -0.06817849
0000a0 60 d0 e1 bc 64 da c5 bc e3 55 44 bd 36 49 35 3d
       -0.027565181 -0.024151988 -0.04793347 0.044259273
0000b0 7c 01 1e be 09 bc 1b 3c 50 23 36 bd e9 a6 6c 3d
       -0.15430254 0.00950528 -0.04446727 0.057776365
0000c0 fc 45 26 3c 9c 4f 30 3e 18 c4 b9 3d 01 c5 00 be
       0.0101485215 0.17217869 0.09070605 -0.12575151
0000d0 d1 94 2f be ef ab 90 bc b6 21 ab 3b 43 a4 81 bd
       -0.17146613 -0.01766011 0.0052225245 -0.063301586
0000e0 d5 9a 76 3e 99 5f 61 be 20 4c 3a 3c 97 58 a8 3d
       0.24082501 -0.22009124 0.011370689 0.08220022
0000f0 53 88 ca 3d d9 1d 0c 3d 14 48 d1 bd 12 7d 57 3b
       0.09889283 0.034208152 -0.10218826 0.0032880944
000100 2f 15 25 be ca cf a0 bd 14 6e 93 bb 78 5e 5b 3e
       -0.16121362 -0.078521326 -0.0044992063 0.21422756
000110 de 26 0f bd af a2 1d be e2 44 7e be 56 86 f6 3d
       -0.034949176 -0.1539409 -0.24830964 0.12037341
000120 a3 59 63 3d c7 df fc bd d3 0c ac bc 29 3b a9 ba
       0.055505406 -0.1234737 -0.021002209 -0.0012911308
000130 d6 2b 62 bd fa af 96 bc e2 5e 9b 3d da bc d6 bd
       -0.055217586 -0.018394459 0.07586457 -0.10485239
000140 57 9a 4c bd 1a d6 1f 3e ca 65 56 bd 6e dd 09 3d
       -0.049951877 0.15609017 -0.052343167 0.033658437
000150 5a f5 11 be f9 a5 f6 3d 66 1e 54 3e b5 89 e3 bc
       -0.1425375 0.120433755 0.20714721 -0.027775625
000160 99 05 7c 3e 3d ee 82 bc 3d 02 91 bc 15 8c ad bc
       0.2461151 -0.015982741 -0.017701263 -0.02118496
000170 fe 27 bd bc 8f b4 8c 3c d2 c3 d7 3d 50 97 21 be
       -0.023090359 0.01717594 0.10535397 -0.15780377
000180 0f 50 09 bd b4 2f a4 3d b9 4a 43 be 08 3f 1d 3d
       -0.033523615 0.08016911 -0.19071473 0.03839019
000190 9c f2 fd 3d 9a 61 9d bc d1 e2 ff bd a2 ac 42 bb
       0.1239979 -0.01921158 -0.12494434 -0.0029704948
0001a0 49 b7 cd bd 9c 25 61 3e 58 42 6c 3e ef b0 63 bd
       -0.100447245 0.21987003 0.23072183 -0.05558866
0001b0 f3 61 27 bd 53 cb 1e be a5 9d a7 3d b3 26 a0 bd
       -0.040864896 -0.1550725 0.08184365 -0.07819881
0001c0 a9 d7 ad 3c 80 8a b5 3d b2 0c cb 3d c8 43 3f 3e
       0.021220999 0.088643074 0.09914531 0.186782
0001d0 47 63 82 3d 84 53 09 3e 03 3c a4 3c 1a 1a 46 be
       0.06366592 0.13410765 0.020048147 -0.19345894
0001e0 be f1 3a 3c 21 21 4a 3e ef a9 3c 3e 4b 83 c9 3d
       0.011410175 0.197392 0.184242 0.09839495
0001f0 1e f8 72 bd 6a ef 80 3e 1b cf 92 3c 67 bf c0 3d
       -0.059318654 0.25182658 0.017921021 0.09411507
000200 9c 50 05 3e d7 8f 9e bd f9 15 44 be 2a f8 62 3e
       0.13019031 -0.07742279 -0.19149007 0.2216498
000210 b6 b0 80 bd 9e e5 27 3e 96 c9 7d 3d 7b ca 86 3d
       -0.06283705 0.16396186 0.061959825 0.06581589
000220 65 84 7f 3c a1 88 c8 bc a2 5d e9 3d 48 87 7d bd
       0.01559553 -0.024479212 0.11394812 -0.061896592
000230 18 f2 6e be 0b 06 03 bc 8f 07 6c bd 56 ab 48 3e
       -0.23334539 -0.007997046 -0.057624396 0.1959661
000240 77 44 71 bc 9c 4e 73 bd b0 7f 0e bd 89 3f 78 3e
       -0.014725796 -0.05940114 -0.03478974 0.24242987
000250 27 ee dd 3d 2b 92 cb 3d ac ab b0 3d 85 6c d7 bd
       0.108364396 0.09939989 0.08626494 -0.10518745
000260 f0 dd 12 3e e5 ab 61 3d 3d 32 46 3e e3 b6 1c 3d
       0.14342475 0.055095572 0.19355102 0.038260352
000270 34 4d 50 3e 0e 5f 35 3c a0 da fb 3d 1f a9 ab 3d
       0.2034195 0.011070026 0.12297559 0.08381867
000280 58 4e 92 bd 50 c0 0e 3e 60 42 02 be 9a c1 f3 bc
       -0.07143849 0.13940549 -0.12720633 -0.029755402
000290 7e a8 4f 3e db 32 99 bd c0 a5 15 3d 65 6c c0 3d
       0.20279118 -0.07480403 0.036535025 0.093956746
0002a0 cf d4 96 3b 7b 3c 2b be cf 78 8f bd 0d 34 a8 bd
       0.0046030055 -0.1672229 -0.07005464 -0.08213053
0002b0 7f 54 92 bd 56 a4 52 3e 55 da 72 3e 46 b0 12 bd
       -0.071450226 0.20570502 0.237161 -0.03581264
0002c0 e2 ad 17 bd eb c3 45 be 61 68 eb 3d cc da 46 3e
       -0.037031062 -0.19313018 0.11494518 0.19419402
0002d0 1a 3c 99 bd 49 37 09 bd bb 34 36 3d 4c ad 2e be
       -0.074821666 -0.03349999 0.04448388 -0.17058295
0002e0 a5 64 93 3e 63 35 06 3e e7 c2 34 3e 97 ab 40 be
       0.28787723 0.13106303 0.17652474 -0.18815456
0002f0 c8 c8 d2 3c ec df 18 3d f5 67 ff 3d f8 f7 e5 3c
       0.025730506 0.037322924 0.12471 0.028072342
000300 b5 bf 8c bd e7 46 5f 3e af e8 7d 3d 76 cd 7d 3e
       -0.06872503 0.21804391 0.061989482 0.24785408
000310 81 d8 4a 3e 41 11 00 3e 18 10 2f be bd f4 32 bd
       0.19809152 0.12506582 -0.17095983 -0.043690432
000320 77 a3 f0 bd db 37 6b bd ff 05 07 3e e7 68 1f bd
       -0.117499284 -0.057426315 0.13185881 -0.038918402
000330 b4 4f 24 be 40 aa cc bc b7 6d a2 3c f6 7a a5 bd
       -0.1604603 -0.024983525 0.019827707 -0.080800936
000340 ea 2f 1b be 83 48 1b be 90 ef c7 bd a9 47 53 bd
       -0.15154997 -0.1516438 -0.0976249 -0.051582012
000350 cf 87 fa 3c 7b 6e 3e be 81 90 3d be e4 ef 0d 3e
       0.030582337 -0.18596832 -0.18512155 0.13861042
000360 11 fb 98 bd 64 1d 4f 3e 83 4b 8a 3d 96 8e b6 bd
       -0.07469762 0.20226055 0.06752684 -0.08913915
000370 fe 1a e9 3d 13 e5 4a bd 45 cf 17 3d 1d a3 2c 3e
       0.113821015 -0.04953487 0.037062902 0.16859098
000380 22 ee 2b 3d bb 9c ba bd e4 b0 93 3d 8c 01 f7 bd
       0.041975148 -0.09111925 0.072114736 -0.12060842
000390 e0 de 31 be 6d 70 1f 3e 02 28 cf 3b 03 3d c1 3d
       -0.17370176 0.15570231 0.006321908 0.09435465
0003a0 72 69 61 bd c1 c4 14 be 50 fc b2 bc a8 56 55 bc
       -0.0550322 -0.1452818 -0.021848828 -0.013021149
0003b0 e3 66 ff 3d 82 15 9e 3d 87 f8 3c 3e ae 64 b4 bd
       0.12470796 0.07718946 0.1845418 -0.088082656
0003c0 06 e0 a8 3d d6 14 61 3e d9 15 0f bd 29 84 c1 bd
       0.08245854 0.21980605 -0.034932945 -0.09449036
0003d0 3f ce e0 3d 1d 76 04 be a7 8c a5 bd 30 f0 66 be
       0.10976838 -0.12935682 -0.08083468 -0.22552562
0003e0 10 7e 37 3e 83 d5 36 be a8 e9 05 be eb 1e f8 3d
       0.17919183 -0.17854886 -0.13077414 0.12115272
0003f0 25 96 4f 3d c2 40 16 be 57 33 fb bd a0 85 25 be
       0.0506803 -0.1467314 -0.12265652 -0.16164255

convs.1.apply_func.2.bias f4 [32]
000000 95 c8 6c 3e 49 4e 96 3e a5 84 12 3e 15 67 1d be
       0.23123391 0.29356602 0.14308412 -0.15371354
000010 6e 20 91 3d 38 79 81 bb 07 b9 44 3e 9d fe 91 3e
       0.070862636 -0.003951218 0.19211207 0.28514567
000020 d8 f1 a5 3e 95 82 b2 3e 28 77 ed 3d 1c 2e 3f 3e
       0.32411075 0.3486525 0.11594993 0.18669933
000030 e6 33 31 3d ef 84 3f 3e 87 de 0a 3d e4 7b 6c 3e
       0.043262385 0.18703054 0.033903625 0.23094136
000040 4e c9 3c 3e bf 27 d1 3c 50 2d 97 3e 1c 1c 8e 3e
       0.18436167 0.025531648 0.29526758 0.2775582
000050 6e 8e 8b bd 50 1d 80 3d 71 14 24 be ac a9 2e 3e
       -0.06814276 0.06255591 -0.16023423 0.17056912
000060 30 6b e0 3d 8c 76 6a bb e6 70 61 3e 0c e9 dd bd
       0.109579444 -0.0035776226 0.22015724 -0.10835466
000070 51 73 a4 3c aa 24 75 3e 04 e8 0f 3e a8 f9 3f 3e
       0.020074518 0.23939767 0.1405335 0.1874758

convs.2.apply_func.0.weight f4 [32, 32]
000000 c7 f3 40 bd f8 4d 0a bd c6 02 e7 bc 5a 62 40 be
       -0.047107484 -0.033765763 -0.028199565 -0.18787518
000010 58 75 80 bc d2 84 d7 3d ca 99 14 3d 9d d3 1c be
       -0.015680954 0.1052338 0.036279477 -0.15315099
000020 2f 4e a2 bc 17 01 f7 3d d6 72 87 be 1b da 1d be
       -0.019812671 0.12060755 -0.264548 -0.15415232
000030 0e b0 84 be 15 47 68 bd 49 77 03 be 67 63 ff 3d
       -0.2591557 -0.056708414 -0.12838472 0.12470131
000040 f7 ea b2 3d 85 6f 2a be 27 08 35 be a2 3e 0b be
       0.08736222 -0.16644104 -0.17678891 -0.13598111
000050 74 dd 06 be 4a 5d b0 bd 84 eb ee bd 95 8b 20 be
       -0.13170415 -0.086115435 -0.11666015 -0.15678246
000060 76 f5 2b 3d 35 d9 98 be 83 af 3e 3d 19 80 27 be
       0.041982137 -0.29853216 0.0465541 -0.16357459
000070 9a f0 a6 bd d4 28 26 be 2f da dd bd 42 6d 1d 3c
       -0.0815136 -0.16226512 -0.10832631 0.009608569
000080 fe 48 ba bd 5f 8a e8 bd 9a fd c8 3c 54 3e 83 bd
       -0.090959534 -0.11354517 0.02453499 -0.064083725
000090 b0 09 f9 3c 8c 0c 80 3d d1 4d 75 bd d0 15 2b be
       0.030400127 0.06252393 -0.059888665 -0.1670754
0000a0 cd 0d 58 bd 69 c3 12 bd 0e 8e e2 3c c6 73 0a be
       -0.052747536 -0.03583089 0.027655628 -0.13520727
0000b0 ad 7a f8 3d 2a 14 f3 bc a6 5d 8c 3d f2 ce a0 bb
       0.121327735 -0.0296727 0.068537995 -0.0049074823
0000c0 03 41 73 bd 35 ac 83 3d 1a 45 00 3e bd ca f8 bc
       -0.059388172 0.0642933 0.1252636 -0.03037011
0000d0 52 9c 75 3d 85 21 c2 3d 67 d4 d6 3d ed 55 87 bc
       0.05996353 0.094790496 0.10489731 -0.016520465
0000e0 19 35 3d 3d 1a a8 26 3c 8d 90 a4 3d 94 6c 06 bd
       0.046193216 0.0101719145 0.080353834 -0.032818392
0000f0 f0 16 84 3d 09 1a 74 3c 06 e3 3b be aa 9c 90 3c
       0.064496875 0.014898785 -0.18348321 0.017652828
000100 cf 17 4c be cd a0 73 3c f1 4d 98 bd 6f c2 54 bd
       -0.19930957 0.014869881 -0.07436741 -0.05194324
000110 76 44 7d be 14 28 6c bc 25 e8 7a 3b 04 e9 0d 3c
       -0.24733147 -0.014413852 0.0038285342 0.008661512
000120 a6 be 33 bb 96 b5 58 be 92 a9 2e 3d c0 32 55 bd
       -0.0027426868 -0.2116302 0.042642184 -0.052050352
000130 86 18 7c be 93 7e 9e bd 97 51 2f bd 60 e6 18 3d
       -0.2461873 -0.07738986 -0.04280242 0.037329078
000140 f0 59 62 3c 6a c4 45 3d d3 67 78 bd a3 e0 a0 bd
       0.013815388 0.04828302 -0.06064589 -0.07855346
000150 ee ba a9 bd 2b 78 c2 3c 9d a9 79 be 07 a3 02 3d
       -0.08287607 0.023738941 -0.24381109 0.031893756
000160 9b af 0c be bd 2e 9f bb 19 83 1e be 7b aa fa bd
       -0.13738863 -0.0048578666 -0.15479697 -0.12239548
000170 33 54 b7 bd 12 b5 9f bd df 08 48 be 62 d7 82 be
       -0.089516066 -0.07798208 -0.19534634 -0.2555495
000180 54 7e 42 be 35 11 0d 3e 93 1f 8e 3d 14 73 fb bd
       -0.18993503 0.13776095 0.06939616 -0.12277809
000190 b3 25 43 3d bb d7 88 bd 3f 06 8b bd a7 1b fd bd
       0.047643375 -0.06681772 -0.06788301 -0.1235879
0001a0 f0 a9 bc bd 87 5e b6 3d 01 0c 14 3e 21 65 45 be
       -0.092121005 0.089047484 0.14457704 -0.19276859
0001b0 63 71 59 3a fa 02 53 3d 5e 4e e0 bd cd 49 ec bd
       0.0008294789 0.05151651 -0.10952447 -0.11537514
0001c0 ec ed 25 be bd e8 ac 3c bf bf 14 3e 2e 15 0a 3d
       -0.16204041 0.021107072 0.1452627 0.033711605
0001d0 0c 30 3c bd f2 a1 12 3d 89 40 31 be bd 25 09 be
       -0.04594426 0.035798974 -0.17309774 -0.13393302
0001e0 a9 33 00 3d 93 74 cb 3d 2a a8 f6 bc 20 ed d2 bd
       0.031299267 0.09934344 -0.030109484 -0.10299134
0001f0 e8 57 eb bc 38 c9 27 be 71 e9 8d 3d 80 2b d7 bd
       -0.02872844 -0.16385353 0.06929291 -0.10506344
000200 df ab bb bd 31 11 3d be eb 19 c5 ba a6 9b 11 be
       -0.09163641 -0.18463589 -0.0015037631 -0.14219531
000210 ae 79 4e bc 8c 44 16 be 0b 60 f0 3c 74 fc 17 be
       -0.012602253 -0.14674586 0.029342672 -0.14842397
000220 0f c3 3a be b3 78 58 be 31 6d 3f 3d 29 c8 31 bd
       -0.18238471 -0.21139793 0.046734992 -0.04340378
000230 2a f2 78 be f1 d5 85 bd b7 79 53 3d 9d 32 fe 3d
       -0.24311128 -0.06534947 0.05162975 0.124119975
000240 49 cd 76 3e 85 46 ed bd 1e 94 7a bd 09 00 a8 3d
       0.24101748 -0.11585716 -0.06117641 0.08203132
000250 0e 82 83 bd 6f 95 1f be b8 64 c7 bd 7c bc b5 3d
       -0.0642129 -0.15584348 -0.097360075 0.08873841
000260 c7 ec 3a 3d 8d 91 ee bd f2 20 50 be bd 1d 9a 3d
       0.045635965 -0.11648855 -0.20325068 0.075252034
000270 b5 19 9f bd 61 f1 e8 bc f9 5e f7 3d c5 6c ac 3d
       -0.07768575 -0.028435411 0.120786615 0.08419184
000280 91 ce ce 3d 97 40 fd 3d 10 5a cf 3d 90 25 67 bd
       0.10097993 0.12365835 0.101246 -0.056432307
000290 96 28 3e be 30 63 07 3d 4c d1 84 3c 86 b4 19 3e
       -0.1857017 0.033053577 0.016213082 0.1501027
0002a0 f8 7d 09 be 0d 6f d2 bc 2b 46 e6 bd 3e 77 48 be
       -0.1342696 -0.025687719 -0.11243852 -0.19576737
0002b0 f7 6f dc bc 05 07 0a 3e e7 87 15 3c ea cc e1 bd
       -0.026908858 0.1347924 0.00912664 -0.110254124
0002c0 45 3e e6 3d 25 0e 2f be d5 bf 55 3d 97 0a e9 bc
       0.11242346 -0.1709524 0.0521849 -0.028447432
0002d0 09 31 3a bc b5 86 e7 bc 27 81 8c be 44 07 3b bd
       -0.01136423 -0.028262476 -0.27442285 -0.045661226
0002e0 02 72 b4 bd 1b ec 04 be 0a 63 be 3d 0b 75 19 bd
       -0.08810808 -0.12980692 0.09296234 -0.037465136
0002f0 c6 9f 27 be cc 8c 10 3d 38 af e3 3d 4c c8 31 be
       -0.16369542 0.035290524 0.11117405 -0.17361563
000300 43 81 1c be a4 5b 29 bd c6 ea ab bc 83 15 d8 3c
       -0.15283684 -0.04134716 -0.020985972 0.026377445
000310 52 36 dd bd d7 5d 4d 3c 7b 48 1a be f1 e5 c0 bc
       -0.108013764 0.01253458 -0.15066712 -0.023547145
000320 d6 38 95 3d da 83 bf bd e2 33 cf 3d de d9 ae 3d
       0.07286231 -0.093513206 0.10117318 0.085376486
000330 ae 71 15 be d3 9f 2f be 54 8e 21 3e 2c f3 20 bd
       -0.14594147 -0.17150812 0.1577695 -0.039294407
000340 e2 08 b7 3d 45 90 16 be 13 9a 97 bd 59 04 08 3e
       0.08937241 -0.14703472 -0.07402434 0.13282908
000350 e6 b2 4a 3e 35 ca 40 be 06 c1 70 3d 05 31 6c be
       0.19794807 -0.18827136 0.05877783 -0.23065574
000360 72 ef 49 be c1 cf ef 3a 94 0b 3a be 98 93 97 3c
       -0.19720247 0.0018296168 -0.18168479 0.018502995
000370 00 b9 89 bd 10 80 7d be 3b 30 73 be 57 48 54 3c
       -0.06724739 -0.24755883 -0.23748867 0.0129567
000380 9a 7a 0a 3d 70 44 c0 bb 9d 9c 26 3e 52 ab 49 be
       0.03380833 -0.0058675334 0.1627068 -0.1969426
000390 e4 f8 b2 bd 80 26 5a be 1a 30 9e 3d d4 9f 6b 3d
       -0.08738878 -0.21303749 0.077240184 0.05752547
0003a0 00 6c b1 bc 2a 49 22 be 45 c7 42 be d2 19 c7 3d
       -0.021657944 -0.15848222 -0.19021328 0.09721722
0003b0 c5 e8 88 3d 32 a6 bf bd 11 ec 32 3c 7f ad 4c 3c
       0.06685022 -0.09357871 0.01092054 0.012492537
0003c0 da 81 01 be 11 49 20 3e 0b b1 85 3d 4e 71 38 3d
       -0.1264719 0.15652873 0.06527909 0.04502993
0003d0 0d ac c8 3d a3 b3 dd bd 40 20 48 3d 69 96 18 be
       0.09798441 -0.108252786 0.04885888 -0.14901127
0003e0 74 9a 2c be 4b d9 6a bd 69 f6 d5 bd 23 99 0d 3e
       -0.16855794 -0.057336133 -0.1044739 0.13827948
0003f0 3a ad 59 bd 64 ce 25 be 04 16 4d be 42 3e 27 be
       -0.053143717 -0.16192013 -0.2002793 -0.16332343

convs.2.apply_func.0.bias f4 [32]
000000 98 06 e6 3e 1c c5 7c ba b4 ce ea 3d f0 7e d6 bd
       0.44926906 -0.00096424087 0.11465207 -0.1047343
000010 31 29 e0 3b bd 76 b2 3b 58 25 db 3c 58 ad 2b 3e
       0.006840848 0.0054462836 0.026751205 0.16765344
000020 0b 35 72 bd 3a 32 2d be 43 c1 20 3d e9 01 9d 3d
       -0.059132617 -0.16913691 0.03924681 0.0766638
000030 c7 1d 76 bd e8 e3 fb bd 89 bc 47 3e 16 a0 1f be
       -0.06008699 -0.12299329 0.19505514 -0.15588412
000040 ff 8f 0c 3e f9 33 c3 3e 6e 61 49 3d 47 e0 16 3e
       0.13726805 0.3812559 0.04916518 0.14733993
000050 d3 17 0b 3c e4 da 9d 3e f1 19 ac bc f1 21 53 3e
       0.008489567 0.30831063 -0.021008464 0.20618416
000060 5f e3 b3 3e 5b 5c 22 3d 52 ea a0 3e 05 67 72 be
       0.35134408 0.03963886 0.31428772 -0.23672111
000070 06 4c c4 bc e6 2a 0d 3e 43 84 87 3d 76 87 b8 3e
       -0.023962032 0.13785896 0.06617024 0.36040848

convs.2.apply_func.2.weight f4 [32, 32]
000000 7a 56 09 3d f1 77 ea 3d 53 da 49 3e fb ae f3 3d
       0.033529736 0.11448658 0.1971219 0.11898609
000010 37 45 01 be 9c 22 69 3e 4e f5 5e 3d c5 fa 8a 3e
       -0.1262406 0.22767109 0.05443316 0.27144447
000020 c8 91 c0 3c 2e 58 19 bd 3d 5a c4 3d 5f 62 74 3e
       0.023507014 -0.03743761 0.09587524 0.2386565
000030 86 6f 8a 3c 48 e6 71 bd 47 be f4 3c 28 d6 65 3a
       0.016898882 -0.059057504 0.029875888 0.00087675685
000040 29 93 25 3e 07 05 0b be 6d fb ce bd 93 ad 67 3c
       0.16169418 -0.13576137 -0.101065494 0.014140504
000050 60 33 ab bd 1c b8 6c 3d ee 67 2f be 1c eb 90 be
       -0.083594084 0.057792768 -0.1712949 -0.28304374
000060 bc ac f4 bd 2e ba b5 bd 01 69 23 3e 53 5d ca bd
       -0.11947009 -0.088734016 0.15958025 -0.098810814
000070 f4 72 03 bd 27 66 90 bd 23 ca 00 be 24 67 3c 3e
       -0.03209205 -0.07050734 -0.12577109 0.1839872
000080 98 2e 9a 3e 88 b0 a2 3d 21 a8 91 bd 0a 1d 29 bc
       0.30113673 0.07943827 -0.07112146 -0.010321865
000090 47 7a 71 bd aa df 68 bb 56 52 be bd 74 16 48 be
       -0.058954503 -0.0035533705 -0.09293048 -0.19539815
0000a0 35 52 39 3c 12 31 8c 3d 17 6c c7 bc c0 36 3f 3d
       0.011311104 0.06845297 -0.024343533 0.046683073
0000b0 97 54 a3 3c 15 2e d4 3d 93 8f 57 3e 62 d3 61 be
       0.019937797 0.10360352 0.21050863 -0.22053292
0000c0 a7 37 c6 bd d9 46 63 3e 02 ba 1e be c2 7c 44 be
       -0.096785836 0.22194995 -0.15500644 -0.19188216
0000d0 4f 7e 7c 3d 79 11 50 3e 34 a5 83 bd 69 29 78 3e
       0.061643895 0.20319165 -0.06427994 0.24234547
0000e0 de d4 33 bd 00 5c 7d 3d 55 34 a3 bc a0 a7 dc bd
       -0.043904178 0.061855316 -0.019922415 -0.107741594
0000f0 52 49 bf 3d 43 fd 10 be 30 64 3f be 21 a6 12 3e
       0.093401566 -0.14159112 -0.18690562 0.14321186
000100 25 24 90 3e be f3 18 be 8b a5 d4 bc 63 eb c7 3d
       0.28152576 -0.1493673 -0.025957843 0.09761693
000110 1f e3 49 3e ed a3 78 3c 8d c4 06 3d a5 86 b1 3d
       0.19715546 0.015175802 0.03290229 0.086682595
000120 6e ba bf 3c ef 23 bf bd 6a 36 fe bd b2 19 44 3e
       0.023404326 -0.09333026 -0.124127224 0.19150427
000130 34 4c 86 bd 55 e1 df 39 6a a8 4a 3e 29 7b 1e 3d
       -0.06557503 0.0004270176 0.19790807 0.038691673
000140 01 a4 4c 3b 60 79 0a be 72 05 42 bc 0f 96 31 bd
       0.0031225684 -0.13522863 -0.011842119 -0.043355998
000150 42 58 3c be 14 47 96 bd f3 7b 0d be 31 24 83 be
       -0.18393043 -0.07337776 -0.13816814 -0.2561355
000160 2f 44 63 3d c4 e7 da 3d 1f 08 21 be cd f3 34 bd
       0.055484947 0.10688737 -0.15725754 -0.04417782
000170 eb e6 a4 3d 16 c5 45 be 86 98 3c bc e7 da fb bd
       0.080518566 -0.19313464 -0.011510974 -0.12297612
000180 5b e9 88 3e 97 39 7f bd cf 68 2a 3d f6 84 25 bd
       0.26740536 -0.06231078 0.04160386 -0.040410005
000190 bb 26 4c bd ac 5c 86 3d 59 00 0e 3c e9 eb 0b 3e
       -0.049841624 0.065606445 0.008667075 0.13664211
0001a0 4d b9 65 bc ec e0 9f 3d 05 22 c1 bd 8b af 81 3e
       -0.01402123 0.07806572 -0.09430317 0.2532924
0001b0 71 f9 6f be 27 00 7a bd 69 7b 60 3e cc 7b 5a bd
       -0.23434998 -0.0610353 0.21922077 -0.05334072
0001c0 bc e4 92 bd 37 dc 37 3d c1 16 e7 3d 49 e0 8d b9
       -0.07172534 0.044887748 0.11283637 -0.0002706072
0001d0 96 2b 7d be 4d ee 72 be d7 63 3e bd 7e 48 d4 3c
       -0.24723658 -0.23723717 -0.046481933 0.025913473
0001e0 85 e1 f2 bd 0e 52 46 be 10 fe e4 bd 19 7b fa bd
       -0.11859421 -0.19367239 -0.11181271 -0.1223051
0001f0 d5 ce 63 3d 77 3d af 3d 5c ec c1 bd 66 72 40 3d
       0.055617172 0.08556645 -0.0946891 0.0469841
000200 72 9f 25 3e d9 00 4b bc b7 94 49 3e 7e fd 89 bd
       0.16174105 -0.012390339 0.19685636 -0.06737803
000210 94 2b d3 3d 9b 23 11 be ad a0 f3 bc 9b 8b 27 3d
       0.10311046 -0.14173739 -0.029739702 0.040904623
000220 b0 4c e5 3b ef 79 f7 bc a2 5b b8 3d cb 4d 93 3e
       0.0069976673 -0.03020951 0.090018526 0.2877029
000230 05 09 88 3c c2 88 02 be 0f 27 30 3e d4 24 79 3d
       0.016605863 -0.12747481 0.172024 0.060826138
000240 70 f7 9c bd 25 f2 69 be 6b db d7 bd 14 0a 30 3e
       -0.076643825 -0.22846277 -0.105398975 0.17191344
000250 33 45 24 be b4 cc b0 3d d4 f8 71 be 46 91 1f be
       -0.16042022 0.08632794 -0.23630077 -0.15582761
000260 84 c4 8a 3c 46 db ab 3d 55 2e 1e bd ed 1b 1b be
       0.01693941 0.083914325 -0.038618404 -0.15147372
000270 02 67 d3 3d cb b2 4c bd da 29 53 be db f3 57 3e
       0.103223816 -0.049975198 -0.20621434 0.21089117
000280 1e 7f 65 3e 16 54 5b bd 97 c6 36 bd 45 99 20 3d
       0.22411773 -0.053546987 -0.044622984 0.03920867
000290 8e e2 c8 3c 17 85 73 3d 6c 7b 3e 3d 51 cb 01 3e
       0.024522092 0.059453096 0.046504423 0.12675215
0002a0 5e e0 eb 3a 42 b3 35 3e 80 36 07 be 4a 40 eb bd
       0.0017995944 0.17744163 -0.13204384 -0.114868715
0002b0 7b 52 d5 bc 1a d0 6e bd 93 28 23 3e 27 ba ce bc
       -0.026040306 -0.05830393 0.15933447 -0.025235249
0002c0 00 9b 37 be 10 eb f6 3d 96 a4 ab 3b 86 7a 31 be
       -0.17930222 0.12056553 0.005238126 -0.17331895
0002d0 13 91 2e be 3b 1c 35 3d 95 37 0c be 35 f0 25 3e
       -0.17047529 0.044216376 -0.13693078 0.16204913
0002e0 fe 5f 6f 3e c2 22 e4 3d d8 5f 0b 3e 10 14 31 3d
       0.23376462 0.11139442 0.1361078 0.043232024
0002f0 94 23 90 bd 76 65 57 be db 4c 6e be fb c9 87 bd
       -0.07038036 -0.21034798 -0.23271506 -0.066303216
000300 c4 cc 68 3e d0 7a 38 bd 5e 06 c0 3d cb 06 41 3d
       0.22734362 -0.045038998 0.093762144 0.04712562
000310 14 95 a6 bc 44 ac 4e 3d 79 2f 21 3d 57 1f 97 3d
       -0.020334758 0.050457254 0.039351914 0.073790245
000320 d0 36 b8 3d 03 b9 b9 bd 83 0a 0c be e8 c7 76 3e
       0.0899483 -0.09068491 -0.13675885 0.24099696
000330 5f 75 ee bb a3 e2 6d bd 47 cc 24 3e c4 ac 15 bc
       -0.0072771753 -0.058077466 0.1609355 -0.009135429
000340 6d 43 39 bd c3 a4 5d be 1b 46 0b bd 0a 8f fe 3c
       -0.045230318 -0.21644883 -0.034002405 0.031074066
000350 6d 2f 84 bd 7a 48 83 bd 50 bb 71 bc 56 21 64 bc
       -0.06454358 -0.06410308 -0.014754131 -0.0139239635
000360 11 45 73 3d db 6f 60 3d 63 78 08 3d 1b 56 bb bd
       0.05939204 0.054794174 0.033317935 -0.09147283
000370 62 cb 31 3d cb e5 d9 bc 0d 76 a1 bd d8 01 4f 3d
       0.04340685 -0.026598832 -0.078838445 0.050538868
000380 c8 20 6d 3e 54 dd 0c be 2f 42 1a 3e c0 95 95 3d
       0.23157036 -0.13756305 0.1506431 0.07303953
000390 c9 44 41 3e 44 17 4b 3e a9 eb e8 3c 2a cd 1b be
       0.18873896 0.19833094 0.028432684 -0.15214983
0003a0 e3 00 c0 3d e4 b6 53 be e6 0f 16 bd ff 8f 70 3e
       0.09375169 -0.20675236 -0.036636256 0.2349243
0003b0 fa fd 3d bd 1e 1d a3 bd 86 2c 4f 3d f4 bd 43 be
       -0.04638479 -0.07964538 0.05057957 -0.1911543
0003c0 6a 8c 9b bd 6f e5 fa bc a1 9f 20 be 6d 5d 40 bd
       -0.07595141 -0.03062698 -0.15685894 -0.046964098
0003d0 8f 65 61 bd 0b 95 36 be 5d ec 93 bd c3 a6 6d be
       -0.055028494 -0.17830293 -0.07222817 -0.23208146
0003e0 20 dd fd 3c 46 44 39 be 63 80 23 3d 32 e8 b0 3d
       0.03098923 -0.1809245 0.03991736 0.08638038
0003f0 16 8a f6 3d c7 a4 45 be 27 6e 7d 3c f2 af c0 3a
       0.120380566 -0.19301139 0.015468157 0.0014700873

convs.2.apply_func.2.bias f4 [32]
000000 f9 8b 05 bc 47 bc 70 3e f2 e0 b1 3c 09 04 3a 3e
       -0.008151048 0.23509322 0.021713708 0.18165602
000010 7b 71 2d 3e 7b 29 f4 3d 33 ff 2e 3c 54 36 b4 bd
       0.1693782 0.11921974 0.010680961 -0.08799425
000020 6c 91 bb 3d a7 8c 09 3e d8 bf 81 3e e6 dd a2 bb
       0.091585964 0.13432561 0.25341678 -0.0049703
000030 09 fb bf bd 65 85 9f 3d 5a 3b 18 3e 7c f4 94 3e
       -0.09374053 0.07789115 0.14866391 0.29092777
000040 63 95 53 3e b0 e4 99 3d 84 2a 73 3e 44 5c 80 3d
       0.20662455 0.07514322 0.23746687 0.06267598
000050 f1 4b 2e 3e 06 e0 07 be d6 9d 99 3d d0 fb ad 3d
       0.17021157 -0.13269052 0.07500808 0.08495295
000060 86 cf 80 3e a7 ce fa bd af f1 7a 3e 55 e4 60 3e
       0.25158328 -0.12246447 0.24506257 0.21962102
000070 5d 34 1c 3e a1 7f a6 3d 67 74 82 3e be e9 7e 3c
       0.1525435 0.08129812 0.25479433 0.015558658

bns.0.weight f4 [32]
000000 56 30 75 3f b9 e6 71 3f 49 35 9d 3f ab 99 99 3f
       0.9577688 0.9449268 1.2281886 1.2000021
000010 5f 6e 9d 3f cd ff 7f 3f cd ff 7f 3f 50 16 86 3f
       1.2299308 0.99999696 0.99999696 1.0475559
000020 9e d7 a1 3f 93 af 98 3f 98 dd 9a 3f 28 a7 9d 3f
       1.2643926 1.1928581 1.2098875 1.2316637
000030 15 48 96 3f 51 16 86 3f ee 79 9d 3f 1f f8 a1 3f
       1.1740748 1.047556 1.2302835 1.2653846
000040 38 12 9f 3f cd ff 7f 3f cd ff 7f 3f 95 54 9b 3f
       1.2427435 0.99999696 0.99999696 1.2135187
000050 d6 c3 97 3f 09 34 a0 3f cd ff 7f 3f 83 32 9d 3f
       1.1856639 1.251588 0.99999696 1.228104
000060 52 16 86 3f fe fa 96 3f ad 58 94 3f f4 be 74 3f
       1.0475562 1.1795347 1.1589562 0.9560387
000070 b7 3c a3 3f f5 f3 9d 3f 49 30 75 3f 50 16 86 3f
       1.2752904 1.2340075 0.957768 1.0475559

bns.0.bias f4 [32]
000000 ad b7 0c be 45 f0 a0 be bb 5a d2 bd de 3d 82 be
       -0.13741942 -0.3143331 -0.10271212 -0.25437826
000010 d3 27 43 bd 44 1f 9c be 7f 42 6b be 49 3a 2e be
       -0.0476454 -0.30492604 -0.22974585 -0.17014422
000020 db f9 d2 bd 3c c6 f5 bd d6 b6 9e be de cb c6 bd
       -0.103015624 -0.12000701 -0.30998868 -0.09706853
000030 3a c8 37 be 75 16 2e be a1 0a 9e bd e2 4c 02 be
       -0.17947474 -0.17000754 -0.07716871 -0.12724641
000040 d8 1e 56 be da 03 c4 bd 82 50 96 be 1b 60 f0 bc
       -0.20910203 -0.09571047 -0.29358298 -0.029342702
000050 e2 d7 24 be b7 cb 33 be 65 c4 6d be 11 a5 70 be
       -0.16097978 -0.1755818 -0.2321945 -0.23500468
000060 29 3f 5f be 83 7f 96 bd 04 97 f9 3c 66 a0 58 be
       -0.21801437 -0.0734854 0.030467518 -0.21154937
000070 73 75 e5 bd a5 e8 e6 bd 4d 09 86 bd f5 24 ca bd
       -0.11204042 -0.11274842 -0.06544743 -0.0987033

bns.0.running_mean f4 [32]
000000 8f f0 94 3c 1e e9 ab 3c 7a 75 9f 45 06 48 b4 45
       0.018181114 0.020985182 5102.6846 5769.003
000010 64 b3 46 45 c1 3f 12 3c 90 b7 14 39 6d 27 86 3c
       3179.212 0.008926333 0.00014182762 0.016376222
000020 08 7a 37 44 09 75 c9 45 97 5b 3f 45 96 a6 3e 45
       733.90674 6446.6294 3061.7244 3050.4116
000030 4c 07 10 45 38 f8 fe 3d 46 5a 59 45 40 50 10 45
       2304.456 0.12449688 3477.642 2309.0156
000040 9a 97 87 45 f1 27 2a 38 7d 5b 49 3d 52 a8 02 45
       4338.95 4.0568357e-05 0.049159516 2090.52
000050 8e cc 51 45 fb 1a 1b 45 25 56 ce 3a be 2d a0 44
       3356.7847 2481.6863 0.0015742226 1281.4294
000060 ce 18 19 3d 14 4d 58 45 66 e9 b0 45 ba 75 d4 3a
       0.03737717 3460.8174 5661.175 0.0016209402
000070 46 8c 7e 44 8b 9b 28 45 8a 89 3f 3b 5d 8a ba 3c
       1018.1918 2697.7214 0.0029226267 0.022771055
