prompt_module/save_model/zheng_model/10000_max_test/0.008_0.1/best_2.pt (torch, 68062 bytes, 36 tensors)

convs.0.apply_func.0.weight f4 [32, 256]
000000 05 53 f5 b9 63 53 09 3d 1b b2 52 bd 85 65 3c bd
       -0.00046791896 0.03352679 -0.051439386 -0.045995254
000010 f9 31 c5 bc f1 4a 89 3c 45 4e a2 ba d3 f9 4a 3d
       -0.02407168 0.016759368 -0.0012382945 0.049554657
000020 75 be b5 bb 51 7a 87 3c b1 ba 9a bc 75 47 49 bc
       -0.005546386 0.016537817 -0.01888785 -0.012285103
000030 bd 90 74 bd 57 8a 29 bd ed 0d d3 bc 05 ba 17 3b
       -0.059708346 -0.041391697 -0.025763476 0.0023151648
000040 65 68 ca 3c 1d 9a 19 3d 91 8c 2d bd 01 f4 de bc
       0.024707982 0.03750049 -0.042370383 -0.02721596
000050 9d f6 b9 3c 53 93 54 3d 4d bc 52 bc 61 90 3f 3d
       0.022700602 0.05189831 -0.012862277 0.04676855
000060 45 0c 25 bc 15 b4 d8 3b 4f cc 67 3d d3 7a 6d bd
       -0.010073726 0.0066132643 0.05659133 -0.057978462
000070 6b 28 21 bd e5 9d 81 bc e1 92 c7 bc 2d 2e 5d 3d
       -0.039345186 -0.01582236 -0.02436203 0.053999115
000080 1f ee 25 bd c5 af eb bc 1f d9 32 bd 7b c1 6f bd
       -0.040510293 -0.028770337 -0.043664094 -0.058534127
000090 09 6f 15 bd a3 0d 5c 3d c1 75 e4 3c 05 26 f8 3c
       -0.036482845 0.053723942 0.02788818 0.030291567
0000a0 45 69 57 3b 3f 3e 03 bd c5 3d 2d 3c a3 05 6f bd
       0.0032869142 -0.032041784 0.010573809 -0.058354985
0000b0 1f f9 38 bd cb f8 03 bd 2b 84 21 3d 2b 18 16 3d
       -0.045159455 -0.03221969 0.039432686 0.036644142
0000c0 cd 10 e3 bc 25 ca 13 bb 45 b9 23 3d 87 7e 7e 3d
       -0.027717972 -0.0022550907 0.03997161 0.062132385
0000d0 29 33 cb 3c cd 54 0a 3c 03 a4 2b 3d c5 ba 16 bd
       0.024804669 0.00844307 0.04190446 -0.03679921
0000e0 fd cf 3e 3c 71 79 46 bd 1d 6d 31 bd d7 3d 04 bd
       0.011646268 -0.04845566 -0.04331695 -0.032285538
0000f0 91 a9 e7 3c fd e6 cd 3c 6f a3 17 bd cd ac 9a 3c
       0.028279098 0.025134558 -0.037021097 0.018881226
000100 73 88 0c 3d 25 3e 01 bc 45 63 1c 3b 05 43 6d 3c
       0.034309816 -0.007888352 0.002386288 0.014481311
000110 05 d0 1e 3d 4d ce 75 3d 9b 46 45 bd f1 a0 bb bc
       0.0387726 0.060011197 -0.048163038 -0.022903891
000120 9d 37 c9 3c d5 1a 54 3d ed c4 5e 3d 27 e1 61 3d
       0.024562651 0.0517834 0.05438702 0.055146363
000130 7d c9 4b 3c fd 9b 5e bd 95 65 bc 3b b1 26 20 bd
       0.012438175 -0.05434798 0.005749414 -0.0390994
000140 91 93 6e bd 43 73 63 3d f5 a5 42 3d 03 5d 7f bd
       -0.0582462 0.055529844 0.04752155 -0.062344562
000150 0d a9 3f 3c cd 7f 2c bc bd 81 28 bc 21 5e ea bc
       0.01169802 -0.010528517 -0.010284838 -0.028609337
000160 91 e3 c4 3c 39 a0 17 bd e1 b0 bb 3c 1b 75 01 3d
       0.024034293 -0.037018035 0.02291149 0.03160582
000170 61 42 37 3d 4d 70 bf 3c 4f 5e 7d bd 05 10 26 bd
       0.04474104 0.023368979 -0.061857518 -0.04054262
000180 3d a5 ff 3c 1d 52 56 3c 9b b2 47 bd ed 67 13 bd
       0.031206721 0.013081101 -0.048754316 -0.035987783
000190 f7 d3 70 3d 59 7e 2c 3d b5 3d df bc d9 db 80 bc
       0.058795895 0.042112682 -0.027251104 -0.015729832
0001a0 7d dc 73 bd 85 3d 93 ba 7d c7 40 bd a7 76 45 bd
       -0.059536446 -0.0011233544 -0.047065247 -0.04820886
0001b0 25 af 61 bb a5 be 19 3c f9 ac d1 bc 9d e6 17 3d
       -0.003443667 0.009383832 -0.025595175 0.037085164
0001c0 3d c8 1b bd 6d 48 68 3d d5 6e 2f 3d 69 e0 57 bd
       -0.03803276 0.056709696 0.042830307 -0.05270425
0001d0 8d da 7e bc 85 d1 38 3b 1d 66 15 3c d5 dc 72 3c
       -0.015555036 0.0028201055 0.009118584 0.014823158
0001e0 61 eb c8 3c e5 58 75 3b d1 d0 f9 bc d9 44 f2 3c
       0.0245263 0.0037437018 -0.03049508 0.029573845
0001f0 5b 90 75 bd a5 ba 17 bd 41 2a 80 bc f1 65 f9 bc
       -0.05995212 -0.037043232 -0.015645148 -0.030444117
000200 61 1c b3 bc bf d1 51 bd 05 d1 59 bc fd e1 5a 3c
       -0.021864118 -0.05122542 -0.013294463 0.013359544
000210 7b c5 26 bd 45 33 52 bb 05 41 37 3d f5 87 d2 bb
       -0.040715676 -0.0032074016 0.04473974 -0.0064248987
000220 85 ab e3 3a c5 ac b0 bb 15 3c 4f 3c 65 c5 22 3d
       0.0017369842 -0.0053916895 0.012648602 0.03973903
000230 bf 7d 72 3d 0b 92 22 3d c9 0b 73 3d 65 1c 94 bb
       0.059201952 0.03969006 0.05933741 -0.0045199865
000240 6b f7 65 bd 45 b9 f2 bc d3 4e 2e 3d 05 6a d4 b9
       -0.05614416 -0.029629359 0.04255564 -0.00040514782
000250 e1 7b fe bc 07 2c 44 bd 05 93 6f bd f1 0f 58 bd
       -0.03106493 -0.04789355 -0.058489818 -0.052749578
000260 75 b3 4f bc 5b 63 0c 3d 79 66 0a 3d 07 e4 76 bd
       -0.012677063 0.03427444 0.03378913 -0.060276058
000270 33 af 1f 3d 8f 51 48 bd f5 7a 58 bc 21 99 cf bc
       0.038985442 -0.048905905 -0.013212909 -0.025341572
000280 f5 3b 45 bc 15 0d 49 bc bf b7 65 bd 49 09 5d bd
       -0.012038221 -0.012271185 -0.056083437 -0.053963933
000290 2d 3b 20 bc 85 e0 53 3a bd 95 e8 bc bd dd c0 3c
       -0.009779734 0.0008082467 -0.028391713 0.023543233
0002a0 3f 69 66 bd c5 35 8a bb a7 20 61 3d 3d d6 d0 bc
       -0.056252714 -0.0042178356 0.05496278 -0.025492782
0002b0 3b 2a 67 3d 3d 6b b9 3c b3 06 67 bd 79 f7 21 3d
       0.05643676 0.022634143 -0.056402873 0.03954265
0002c0 f5 52 ec bb 75 8e e4 bc 19 b5 4c 3d 59 de 4e bd
       -0.0072120377 -0.02789996 0.049977396 -0.050505016
0002d0 b5 c1 db 3b c5 63 56 bc 1b cf 36 3d 0d eb 8e 3c
       0.0067064413 -0.01308531 0.044631105 0.017446065
0002e0 d1 03 f6 3c 45 d0 b4 3c 05 3e 76 bc 55 59 57 bc
       0.030031117 0.022071967 -0.015029435 -0.013143857
0002f0 05 f6 52 bd 51 b5 0a 3d 2b 41 4b 3d 61 28 2f 3d
       -0.051504154 0.033864323 0.049622696 0.042763118
000300 b1 92 34 bd 65 ad 36 3b 95 75 34 bd 8d eb 0c bd
       -0.04408521 0.0027874347 -0.044057447 -0.034404326
000310 35 2b 15 bd 39 f8 ae 3c c9 8c 18 bd 05 b9 b2 ba
       -0.03641816 0.021358596 -0.03724364 -0.0013635462
000320 a5 4e 2c 3b 09 05 25 3d ff 82 41 bd 49 be 2f bd
       0.0026291993 0.040288005 -0.04724407 -0.04290608
000330 41 a5 14 bd db 2d 33 3d d1 0a b8 bc e5 ed 57 3d
       -0.03629041 0.043744903 -0.022466095 0.05271711
000340 a5 23 b9 3c 45 a9 01 3c 05 ec f3 b9 0d 6c 4a bc
       0.022600004 0.007913892 -0.0004652442 -0.012354863
000350 45 79 00 3c 35 d2 69 bc 05 3d e6 b9 c5 a6 02 3c
       0.007841413 -0.014271309 -0.00043914482 0.007974331
000360 9d 3d 48 bd 7f 2c 06 bd dd b6 4e 3d 8b c0 4f bd
       -0.048886884 -0.03275728 0.05046736 -0.050720733
000370 25 0e 93 bb c5 3d 7d 3d 15 f3 b8 3c c5 ef e7 3a
       -0.00448777 0.061826486 0.022576848 0.0017695358
000380 2b d9 5d bd 31 a1 fd 3c 0d 57 36 bd ad 55 91 bc
       -0.054162186 0.030960651 -0.04451661 -0.017741049
000390 d1 c7 ab bc 3d a3 17 bc 85 35 33 3a 9b 25 53 3d
       -0.020969303 -0.009255228 0.0006836283 0.051549535
0003a0 85 aa ff 3b 25 4b 65 3d 35 98 1c 3d cb d7 21 bd
       0.00780231 0.055979867 0.038231093 -0.039512437
0003b0 59 a1 e5 3c 29 f6 34 bd a1 fe d8 bc 45 96 96 3c
       0.028031038 -0.04418007 -0.026488604 0.018382201
0003c0 f5 0d a9 3c f7 0d 40 3d 2d d1 a4 bc 05 d3 d1 38
       0.020636538 0.046888318 -0.020119274 0.00010005202
0003d0 7f ca 03 3d 5f 92 77 bd 47 14 39 3d 35 b0 53 bd
       0.032175537 -0.060442325 0.045185354 -0.051681716
0003e0 05 cf 61 3a e5 17 2e bc 0f d3 06 bd dd 56 07 3c
       0.0008613917 -0.010625814 -0.032916125 0.008260456
0003f0 f7 af 53 3d ed a9 95 bc 5b fb 17 bd 89 5a bd bc
       0.051681485 -0.018269503 -0.037104946 -0.02311446

convs.0.apply_func.0.bias f4 [32]
000000 25 90 08 bb 02 1c 78 bc af f1 9e bd 75 8a 61 3b
       -0.002083787 -0.015143396 -0.07760941 0.0034414802
000010 3d 7c 28 bd bf d0 68 3e 1b 76 7e 3d 75 4f 62 3d
       -0.041134108 0.2273588 0.062124353 0.055251557
000020 f5 f7 12 bd 59 af ab 3c 8e 9c b8 bd c4 44 ef be
       -0.035881 0.020957636 -0.090142354 -0.46732152
000030 64 b4 d0 bd f9 19 c9 bc 1b 94 52 bc fb bd 99 3e
       -0.10190657 -0.024548518 -0.012852694 0.30027756
000040 20 e0 3e bd f8 c2 9d 3a 05 b4 a9 3c 9e 34 e1 3c
       -0.04660046 0.0012036255 0.020715723 0.02749091
000050 e9 6b ed 3e 00 ef ec bd 99 44 a8 bd 48 15 0b bd
       0.4637139 -0.11569023 -0.08216209 -0.033955842
000060 05 fa 88 ba 33 fb 19 bf 2d 2d 6a bb 1d 59 53 3c
       -0.0010450488 -0.60148925 -0.0035732493 0.012899664
000070 13 8a 9c 3b 96 b3 72 3f c0 9a 87 3e 97 ea 41 bd
       0.004777202 0.94805276 0.26485252 -0.047342863

convs.0.apply_func.2.weight f4 [32, 32]
000000 03 de 20 be 02 f6 7d bb 09 72 3d 3e 2d 54 32 3d
       -0.15709691 -0.0038751368 0.18500532 0.043537308
000010 35 9c ee 3d 90 a3 e8 3c a1 e2 ad 3d 74 4d 4d 3e
       0.11650888 0.028398305 0.08490492 0.20049077
000020 73 85 df bd c7 05 90 3c 2b 20 b4 bd 97 eb c6 bd
       -0.10914125 0.01758088 -0.08795198 -0.09712904
000030 5d 56 f8 bd db c0 b1 3d 35 12 6e bd 06 9b f6 3d
       -0.121258475 0.086793624 -0.058122832 0.12041287
000040 ac 46 84 3c 40 0f e1 3d 9a 28 ce bd ef 62 80 bd
       0.01614698 0.10989237 -0.10066338 -0.0626887
000050 1b 07 b6 bc 0d 61 13 be 1a 13 fc 3d c0 f5 d5 3d
       -0.022220185 -0.1439249 0.12308331 0.10447264
000060 c1 f0 82 bd 21 3a 20 be e1 ee 34 bd b5 87 ef bd
       -0.063935764 -0.15647174 -0.044173125 -0.11695806
000070 d6 39 55 bd 5a 68 24 3e 9d b3 5b 3d 35 86 17 bd
       -0.05205711 0.16055432 0.05363809 -0.036993224
000080 91 45 14 be 9c c9 29 3d 05 f9 19 bc 6a 4c 09 3c
       -0.14479662 0.041452035 -0.00939775 0.008380035
000090 86 f4 cd bc e4 f0 69 be 2f 1c 6c 3d 47 cc 06 be
       -0.025141012 -0.22845799 0.057644065 -0.13163863
0000a0 93 87 a5 bd c4 62 f8 3d 13 45 d5 3d 4e 62 b8 bc
       -0.08082499 0.12128213 0.104135655 -0.022507813
0000b0 90 c0 f9 3d bc d2 d6 bd 37 62 57 3e f1 43 fd bd
       0.121949315 -0.10489413 0.2103356 -0.123664744
0000c0 47 33 63 be dc 5d a8 3d e2 d8 e8 bd 68 07 aa bd
       -0.2218753 0.08221027 -0.11369492 -0.08302194
0000d0 93 bc 2d bd 67 b1 b7 3d 49 0e e8 3c a6 c7 d9 bd
       -0.042416167 0.08969384 0.028327124 -0.10633783
0000e0 33 82 f6 bd 31 6b ad bd 41 3b c5 bd ec bd 45 3d
       -0.12036552 -0.08467711 -0.096304424 0.048276827
0000f0 00 d6 1d 3e a9 a8 7d bd ef eb 7b be b8 da 72 bd
       0.15413666 -0.061928425 -0.2460172 -0.059290618
000100 7e 53 60 bc 5c aa e8 bb bc 79 74 3d d0 94 7b bd
       -0.013691781 -0.0071003865 0.059686407 -0.061421216
000110 28 30 18 3e 5f ff 71 bc 77 5e f2 3d 57 b8 24 be
       0.1486212 -0.014770358 0.11834424 -0.16085945
000120 43 33 04 3e 79 ab 66 bd 7a d1 93 bc 01 9d 59 be
       0.1291018 -0.056315873 -0.018044222 -0.21251298
000130 86 ce 9a 3d 71 b5 b9 3d ad 32 1d be 90 ac 02 3d
       0.075589225 0.0906781 -0.15351363 0.03190285
000140 c5 b6 00 bc 96 1c dc 3d d2 8f 07 b9 1a 20 37 bd
       -0.007856076 0.1074764 -0.0001292818 -0.04470835
000150 10 85 1d 3d ee 0f 2c 3e 77 be c0 3d 81 c0 d0 3b
       0.038456976 0.16802952 0.09411328 0.0063706045
000160 d0 19 1e 3b 06 d0 33 bd 57 ea 60 bd 8e 87 19 3e
       0.0024124272 -0.04389956 -0.054910984 0.14993116
000170 0a d6 1c 3e 79 4e 41 3f 6e 55 97 3d 23 61 c9 3c
       0.15316024 0.75510365 0.07389341 0.024582451
000180 46 9b 08 3e ef dc c0 3c 4b 95 43 3e cf 20 7e bd
       0.13340482 0.02354285 0.1909992 -0.062043007
000190 86 11 31 be a5 8d fc 3d 4f 54 79 3d 8a 84 2a be
       -0.17291841 0.12331704 0.06087142 -0.16652122
0001a0 28 3c 9d 3d d2 b4 1a bd 95 f1 ed 3d 3c 1c 08 3e
       0.076774895 -0.0377701 0.11618344 0.1329202
0001b0 ac 8c c9 3d 56 b9 cf 3b a8 76 a8 3d 73 dc 12 be
       0.09841284 0.0063392324 0.08225757 -0.14341907
0001c0 f3 68 7d 3d fb ef 6a 3d df 88 0d 3e ae 76 81 3d
       0.061867665 0.05735777 0.13821743 0.063214645
0001d0 c9 c7 43 3e e3 f8 74 3d a1 e4 1e 3c c0 d1 ec bd
       0.1911918 0.05980767 0.009698064 -0.11563444
0001e0 87 92 ad bd 21 92 2c 3e 66 21 df 3d db 8d fc 3d
       -0.084752135 0.16852619 0.10895042 0.12331744
0001f0 36 f2 ec 3d 2b 55 93 be da cd e1 be 4c ad a6 bb
       0.115696356 -0.28775916 -0.44102365 -0.0050865766
000200 a8 7b ea bc 95 ca 14 3d 11 92 63 bc 94 76 4f 3e
       -0.028623417 0.03632601 -0.013889805 0.20260078
000210 e4 cf 18 3e 25 d8 7c bd 20 b9 56 3d 5b 01 95 3d
       0.14923054 -0.06172957 0.052422643 0.07275649
000220 95 a6 0a 3e 34 40 64 3c 34 2d 56 be 96 fd 89 3c
       0.13540109 0.013931323 -0.20915681 0.016844552
000230 66 17 10 be 50 07 bc 3c 2a 3d 0c 3e 24 9e 90 3c
       -0.14071426 0.022952706 0.13695207 0.017653532
000240 b0 10 42 3e 3b b1 78 3e 6b 8f 25 be a1 a2 5b bb
       0.18951678 0.24286358 -0.16167991 -0.0033513682
000250 47 c5 7a 3d 08 8f b8 bb 77 be ba bd 40 44 58 3e
       0.061223295 -0.005632285 -0.091183595 0.21119785
000260 08 47 d9 bd 9e 41 24 be a2 61 25 be 94 22 c5 bd
       -0.10609251 -0.16040656 -0.16150525 -0.09625736
000270 8b b7 80 3d d3 5c 4f 3f e8 a5 1e bd 89 26 0e be
       0.06285008 0.81001014 -0.03873244 -0.13881887
000280 64 47 06 3e d7 2a 56 bc d0 4c 1e be 7e 2e ab bb
       0.13113171 -0.013071737 -0.15458989 -0.005224048
000290 fe 8d 9d 3d 36 30 e7 bd 62 40 b2 3c e9 54 83 bd
       0.076930985 -0.112884924 0.021759216 -0.0641268
0002a0 8e 93 ee bd 4c c5 22 3e f3 e7 ef 3d f7 2a cb bd
       -0.116492376 0.15895575 0.11714163 -0.09920304
0002b0 41 40 e9 3d 6a f2 47 bd 61 c0 1a bd 61 9c 84 bd
       0.113892086 -0.04881517 -0.037781123 -0.064751394
0002c0 26 46 06 be 11 4b 2f bd 77 e2 f0 bd f3 61 78 bc
       -0.13112697 -0.0427962 -0.11761945 -0.015160072
0002d0 35 77 24 be f3 e5 2d bc 4b 1c b1 bd 8f ab b4 3d
       -0.16061099 -0.010613906 -0.086479746 0.08821785
0002e0 2a 17 32 3d fe e5 85 be 28 ad fa bd 22 60 7c bd
       0.043479122 -0.26152033 -0.12240058 -0.061615117
0002f0 6d 41 6f 3d 48 72 9d 3c 13 15 f3 3d 0a 3c f4 bd
       0.058412004 0.019219533 0.11869254 -0.11925514
000300 b3 0a 2b 3e e9 91 2a 3e b7 09 10 be d0 ea 14 be
       0.167033 0.16657223 -0.14066206 -0.14542699
000310 17 4d 0d be b3 64 61 3b ce fc 1c bd 12 be ff bd
       -0.13798939 0.0034392297 -0.03832703 -0.12487425
000320 14 a6 4d bd 50 c7 e2 3d e9 f5 4e bc bc ec be bd
       -0.050207213 0.11073172 -0.012631872 -0.09322497
000330 4b d6 ed bd 19 28 87 3d 75 96 62 3d 74 95 ec bc
       -0.11613139 0.06599445 0.05531927 -0.028879859
000340 d4 39 14 be 8e c5 99 3d 9c 5b c1 bd 2b 8f 1e be
       -0.14475185 0.07508384 -0.09441301 -0.15484302
000350 99 fa 56 3e 52 8e 91 3d 79 ad f5 bc 2f 21 97 3d
       0.20994033 0.071072236 -0.029989945 0.07379376
000360 9f 06 13 3e 9f dd 20 be 86 b8 4f 3c e0 ac 71 bc
       0.14357994 -0.15709542 0.012678271 -0.014750689
000370 01 d5 2f be 2f 83 19 3e e4 19 2b be 64 af be bc
       -0.17171098 0.14991449 -0.16709095 -0.023276992
000380 ab ca b7 3d 16 a8 e5 3d cd 3b 3f bd a6 ef 15 3e
       0.08974203 0.112137005 -0.04668789 0.146422
000390 c9 99 6c bb 77 49 27 be 60 ba 28 be d0 19 05 be
       -0.0036102405 -0.16336618 -0.16477346 -0.12998128
0003a0 aa 72 8d ba 93 d0 12 3e 0a a4 9a bd 43 70 e0 bc
       -0.0010791619 0.14337377 -0.07550819 -0.02739728
0003b0 ae 7e f7 3d 9b 81 32 bd 31 d9 9c 3d aa 92 06 3d
       0.12084709 -0.043580633 0.076586135 0.032854713
0003c0 90 16 8d bd c5 90 ea bd 6c af 00 3e 78 73 c2 bd
       -0.06889069 -0.11453394 0.12566918 -0.0949468
0003d0 11 30 95 3c 6b 72 7b 3d 08 50 06 3d e1 79 7e bd
       0.018211396 0.061388414 0.032791167 -0.06212795
0003e0 79 f0 0b bd 3d 5f 98 bd 28 fc 58 3c 48 26 53 bd
       -0.03416488 -0.0744004 0.0132437125 -0.05155018
0003f0 0d ef 86 3d 3a 78 ba 3d b2 53 e2 3d 15 64 aa bd
       0.06588564 0.09104963 0.1105112 -0.083198704

convs.0.apply_func.2.bias f4 [32]
000000 eb 9d 44 3e 95 a0 46 be f4 7a 2e 3f fa 1e 4a 3e
       0.19200866 -0.19397195 0.6815636 0.19738379
000010 eb 6d 6f bd 07 21 d6 bd ae 90 f7 3d 34 da bf 3d
       -0.058454435 -0.10455518 0.12088142 0.09367791
000020 d9 41 f6 3d 52 4b a6 3e de bd 42 3e f3 38 79 bd
       0.12024278 0.3247934 0.19017741 -0.060845327
000030 41 7a b3 3e 4c 30 dd 3d 3a 0c 9a 3e 3c 5a 3f 3e
       0.3505421 0.108002275 0.30087453 0.18686765
000040 ba dd 31 be 9b b5 7d 3a f6 06 05 be a5 64 21 3f
       -0.17369738 0.00096782454 -0.12990937 0.63044196
000050 5c a8 36 3c 8d ed 73 3e b0 15 2e bd 3a 72 52 3e
       0.011148538 0.23821087 -0.04250115 0.20551386
000060 d0 da 6d 3d 22 83 82 3e cb ac 92 3e 4c e0 06 bc
       0.058070004 0.2549067 0.28647456 -0.0082321875
000070 bf 5e 5b 3f 4a 1c 55 3e 94 3f c9 3d 01 12 19 3e
       0.85691446 0.20811573 0.0982658 0.14948274

convs.1.apply_func.0.weight f4 [32, 32]
000000 5e 70 c2 bd 1b 3d bf 3c 48 35 ec 3b 10 d9 a6 bc
       -0.094940886 0.023344567 0.0072085 -0.020367175
000010 ee 31 88 be 56 13 4b bd a1 4c 02 3d 91 f0 25 3e
       -0.26600593 -0.049578987 0.03181136 0.1620505
000020 06 ea 19 3d 09 54 9b 3c 69 6c 34 be 2c 7d 97 3d
       0.037576698 0.01896097 -0.1761948 0.073969215
000030 c0 46 c1 bd 05 16 0e 3e 26 e3 03 bd 48 95 8d bd
       -0.094373226 0.13875587 -0.032199048 -0.06913239
000040 a5 79 3d be 50 b3 25 3e 50 11 05 3d 11 0f 89 3d
       -0.18503435 0.16181684 0.032487214 0.06692327
000050 0f bf 5c be e4 25 cc bb 90 52 03 3e 26 90 ff bd
       -0.21557258 -0.006230103 0.12824464 -0.12478666
000060 ac 68 9e 3e be a8 eb bd c3 b7 ab bc 6e f3 c1 3c
       0.30939233 -0.115067944 -0.020961648 0.023675647
000070 37 46 e2 3d d5 18 32 be 1e 4e 09 bb a9 15 ac 3e
       0.11048549 -0.17392285 -0.0020951102 0.33610275
000080 1d c6 2e be 22 e6 9e 3d 3f 07 2d be da 41 35 3e
       -0.17067762 0.07758738 -0.16897295 0.17700902
000090 ab 0c b3 bd 28 0e 70 be 26 c7 8f be a3 a0 41 be
       -0.087426506 -0.234429 -0.28081626 -0.18908934
0000a0 00 d2 04 be 72 d8 14 bd 36 38 d8 bd cc 47 0b be
       -0.12970734 -0.03633923 -0.105575964 -0.13601607
0000b0 7a 26 25 3d 0e a7 09 be f1 1f cc be bd 14 38 be
       0.040319897 -0.13442633 -0.3986812 -0.17976661
0000c0 88 ee 43 3e f0 4a 88 be da 09 16 be 77 28 dd bd
       0.19133961 -0.26619673 -0.14652196 -0.10798734
0000d0 05 f9 a4 3d 73 54 54 be 4b f8 1c 3d f1 95 95 3d
       0.08055309 -0.2073534 0.038322728 0.0730399
0000e0 9c 78 be bc 24 01 07 be 35 3d 13 be ec 90 7d 3d
       -0.02325087 -0.13184029 -0.14378817 0.061905786
0000f0 3b 48 a4 be 43 2a c2 be 16 66 3a be 5a f8 28 be
       -0.32086357 -0.37922868 -0.18203005 -0.16500989
000100 87 a1 aa 3d d3 41 bd be 7b 92 be bc d4 50 ff bd
       0.0833159 -0.36964282 -0.023263207 -0.124665886
000110 e3 83 22 bc 2f a3 db be 86 d5 b3 be 44 b4 bb be
       -0.00991914 -0.42897937 -0.35123843 -0.3666097
000120 a4 42 ae 3d aa fa 29 3d 47 77 43 bd 87 07 d7 3d
       0.085088044 0.041498818 -0.047721174 0.104994826
000130 db 78 03 3e 72 6d 81 be 36 5b 8b bc f0 3f 5e 3d
       0.12839071 -0.25278813 -0.017011266 0.054260194
000140 3c 77 39 be 9e fb 99 be 58 89 9f bd 3c f3 6a 3e
       -0.1811189 -0.3007478 -0.07789868 0.22944349
000150 05 21 dd bc 2f a6 66 3d f5 97 c1 be 67 bc 6c be
       -0.026993284 0.05631083 -0.37811247 -0.23118745
000160 ea ec b4 be 09 7f 47 3d 2e 56 3b bd 9c 61 0b 3c
       -0.35337 0.048705135 -0.045736484 0.008507159
000170 8d 16 ac 3d 47 5a 05 3e 2b 30 06 bc 65 5c fe bd
       0.08402739 0.1302272 -0.008190195 -0.124199666
000180 98 9f 81 3d 27 08 90 bd 79 d2 23 bc f4 43 1c bf
       0.06329268 -0.07032805 -0.009998911 -0.6104119
000190 20 50 81 be 3a 54 09 be 64 d7 be 3d cc 9b 45 3e
       -0.25256443 -0.13411036 0.09318426 0.19297713
0001a0 1f 53 0c bd 66 65 2a be ec d2 2c bf 2c 18 3e 3d
       -0.034258958 -0.16640243 -0.6750934 0.04640977
0001b0 b7 81 71 be 64 59 7c 3e 0a 79 81 3d 3f f4 c1 bd
       -0.23584639 0.24643475 0.063219145 -0.09470414
0001c0 8e 3c d9 be ba de 33 3e 26 de e5 3d 72 6d 86 bb
       -0.42429012 0.17565432 0.11224012 -0.0041024024
0001d0 6f 7f 05 bf d6 80 f7 bc ce 69 d5 3d 4e ae 3d bf
       -0.52147573 -0.030212801 0.10420571 -0.7409409
0001e0 1d eb 81 3d cb 11 94 bc 00 0d 52 bc 96 63 8b 3e
       0.063436724 -0.01807489 -0.012820482 0.27224416
0001f0 78 d3 8d 3d f0 02 69 bd e0 61 57 3e bd 89 c1 3e
       0.069251 -0.056887567 0.2103343 0.37800398
000200 cf 41 65 3d 25 fd 8c 3d b6 13 29 be 4a 7d 27 be
       0.055970963 0.06884221 -0.16511425 -0.16356388
000210 22 cc c2 bb d3 b1 4f be 41 ce 34 bd 0b c0 e7 bd
       -0.0059447447 -0.20282678 -0.04414201 -0.11315926
000220 d4 46 bf 3d 04 8c dd bb dc 8e 97 be 93 c0 b3 bd
       0.09339681 -0.006761076 -0.2960118 -0.08776965
000230 81 27 97 bd 6f f0 32 3d f7 8f b9 3d 26 e8 8c bd
       -0.07380582 0.043686327 0.09060662 -0.06880216
000240 88 d7 f9 bd d4 4f 19 3e 06 32 1e bd 20 32 20 3e
       -0.121993124 0.14971858 -0.038621925 0.15644121
000250 91 16 8f be de 56 04 be 61 25 84 3d ff 9f 52 be
       -0.27946904 -0.12923762 0.06452442 -0.20568846
000260 2c cb 41 3c c1 8a f1 3d 65 b8 86 bd 29 0c c9 bd
       0.011828225 0.11794043 -0.06578139 -0.098167725
000270 54 f6 f0 3d 25 7d 0c be 61 b7 3d 3e 83 cf 14 bc
       0.11765733 -0.13719614 0.18526985 -0.009082678
000280 2c 9b c3 3c 2d e1 4d bd 43 ad f9 bc 01 10 10 3e
       0.023877703 -0.050263572 -0.030478125 0.14068605
000290 c5 85 23 be 9f f3 69 bd f6 68 62 bd 84 dc 0d 3b
       -0.15968998 -0.0571171 -0.05527588 0.002164633
0002a0 46 da fc bd 7d a7 63 bd 81 50 82 be db 96 b6 3c
       -0.1234632 -0.05557965 -0.25452045 0.02228873
0002b0 e3 2c 7a bd 44 a3 95 bc 64 d9 10 be 3d 19 1c 3d
       -0.061077964 -0.018266328 -0.14145428 0.038110007
0002c0 00 85 90 bd 04 f4 f9 3b 11 83 d1 bb 49 98 52 bd
       -0.07056618 0.007627966 -0.006393798 -0.05141476
0002d0 da 69 b0 be 6d 87 8f 3c b1 ab 97 be 28 7b a2 bd
       -0.34455758 0.01752063 -0.29623178 -0.079336464
0002e0 bc 4e 03 be 58 1d a7 bb bf e0 59 3d fe 83 1d 3e
       -0.12823004 -0.0050999336 0.05319285 0.15382382
0002f0 aa 26 85 bd 75 d6 4a be 69 2d 27 3e b7 37 df bb
       -0.06501515 -0.19808371 0.16325916 -0.0068120616
000300 a8 61 5f 3d 4c 76 45 bd 86 fa 05 bc a9 38 48 3e
       0.05453649 -0.04820852 -0.008177405 0.19552864
000310 5d aa 1c 3e 30 76 22 be 57 0b a7 be c1 53 76 be
       0.15299363 -0.15865397 -0.3262584 -0.24055387
000320 94 a5 6a bd c0 6a b5 bd d2 af ae 3e a1 fb 34 3e
       -0.057286814 -0.088582516 0.34118515 0.17674114
000330 6a 22 5d 3d 81 73 5f be 81 71 3d be 5f fc 17 3d
       0.053987898 -0.21821405 -0.1850033 0.037105914
000340 75 54 a7 3e 5a 24 33 be ad 8f 9e be 5d e1 1c be
       0.32681623 -0.17494336 -0.3096899 -0.15320344
000350 df d7 85 3e 0f e7 7a 3d a2 55 a8 bc 36 57 30 3e
       0.2614126 0.06125551 -0.020548645 0.17220768
000360 fe 9b 75 be b4 37 1d 3e 12 aa cf 3d 4a 29 4e 3d
       -0.23985288 0.1535328 0.1013986 0.050332345
000370 ec 0b 09 3c 01 fd e0 3c 67 c2 98 3d 7c 29 09 be
       0.008364659 0.027464392 0.07458954 -0.13394731
000380 13 ec 92 bd 87 d6 55 3d 6b 60 27 bb fe 4f db 3d
       -0.07173934 0.052206542 -0.0025539647 0.10708617
000390 8c 2f 51 3d 8b b7 11 3e 94 d1 c1 bc 0a 63 81 3e
       0.051070735 0.14230172 -0.023659505 0.25270873
0003a0 06 7f 82 bd 6e 4e 5f bd fa b5 65 3d 80 16 34 3d
       -0.06371884 -0.054518156 0.05608175 0.04396677
0003b0 d8 b2 72 bd 5e 23 4b bd ac 0b b6 bd 35 a9 98 bd
       -0.05925259 -0.049594276 -0.08888945 -0.07454149
0003c0 5c 30 e1 bc 7e e1 14 bd 08 eb ab bb fb 0a c8 3d
       -0.02748888 -0.03634786 -0.005246524 0.09767719
0003d0 31 8b 2c bd b1 73 09 be b5 b9 f1 3c a3 38 c3 bd
       -0.04212493 -0.13423039 0.029507497 -0.09532287
0003e0 b5 b9 5c 3e be 4d be 3b 5d 94 0f 3e b6 48 57 3e
       0.21555217 0.0058076074 0.1402144 0.21023831
0003f0 f3 e1 37 3e 28 cd e7 3c e1 58 62 3e b6 0d ad 3d
       0.17957287 0.028296068 0.22104217 0.08449881

convs.1.apply_func.0.bias f4 [32]
000000 0a df f4 3d dc ea 8c 3e 57 7e 8f 3e 3a c6 c0 3f
       0.11956604 0.27522933 0.28026077 1.5060494
000010 7b 15 7f 3f 05 8a 80 3e e9 79 98 be fc 0a 0e 3e
       0.9964215 0.251053 -0.2978051 0.13871378
000020 cf 95 2f 3e 43 13 1e be a2 0c 90 3f 2a 59 de 3e
       0.17146991 -0.15437035 1.1253855 0.43427402
000030 a2 7f 49 3e 5d 02 8a be 31 4e ef 3f 26 0a a2 3d
       0.19677594 -0.26954928 1.8695737 0.07912092
000040 f2 26 2b 3e 34 f6 28 be 15 85 e7 3e 51 0e db 3e
       0.16714075 -0.16500169 0.4521872 0.4278436
000050 3c 77 92 be 71 66 14 3e 60 fc 02 c0 94 0a ed bd
       -0.28606594 0.14492203 -2.0466537 -0.11574283
000060 70 23 e2 3e 22 6a 43 3f 44 5d 25 3e 37 18 9f bf
       0.44167662 0.7633382 0.1614886 -1.2429265
000070 4f e1 f7 3e 6d ef 8b 3f 84 15 23 3d c4 52 a5 3f
       0.48414084 1.0932442 0.03981544 1.2915883

convs.1.apply_func.2.weight f4 [32, 32]
000000 a8 3c d9 bb 7b fc 70 bc 3e af 96 3d 02 8b a4 3c
       -0.0066295452 -0.014708634 0.073576435 0.020085815
000010 9a fc 8b 3e d2 13 df bd 95 3d 40 be 66 85 94 bd
       0.27341157 -0.10892452 -0.18773492 -0.07252006
000020 f3 3e 93 3d 08 43 94 be 28 8f 90 3d 91 36 d1 be
       0.07189741 -0.2895739 0.07058555 -0.40861943
000030 4f 68 ec be b1 63 19 bd b2 69 8f 3e 55 46 00 be
       -0.4617333 -0.03744859 0.28010327 -0.1252683
000040 61 e0 3f bb 10 54 ef bd 23 e7 88 bd da 84 f6 bc
       -0.0029278027 -0.116859555 -0.06684711 -0.030092645
000050 5f 87 67 bd c1 d4 f5 bb 67 3b 17 be b3 97 42 be
       -0.056525584 -0.007502169 -0.14768754 -0.19003181
000060 f8 4b ef bc 31 1b 32 3e ce 97 e4 bd c6 75 0c bd
       -0.02921103 0.17393185 -0.11161767 -0.034292005
000070 28 e1 b9 3d 12 40 1f 3e e6 53 1b be 65 a8 08 3e
       0.09076148 0.15551785 -0.15168723 0.13345487
000080 41 04 8a 3c 23 30 00 bf 9c 62 48 3e 79 09 c8 bd
       0.016847732 -0.5007345 0.19568866 -0.09767432
000090 3c 1c 39 be 95 78 44 be d3 f3 8f bd 3b 03 8c bd
       -0.18077177 -0.19186623 -0.07028928 -0.06836554
0000a0 77 99 1a 3e 7e cb 1b be c0 67 d9 bc 3d 0c a8 3d
       0.15097605 -0.15214345 -0.02653873 0.08205459
0000b0 ae 39 ec bd 7c 9e 36 3c 59 a0 c8 3c 81 2e 31 bd
       -0.11534439 0.011146184 0.024490522 -0.04325724
0000c0 d6 5e 1b 3c 47 a8 43 3e 16 90 f4 bb 64 88 8d bd
       0.00948306 0.19107161 -0.0074634654 -0.0691078
0000d0 92 cb 44 be c1 26 d2 bc 6c ea af be f9 89 79 bd
       -0.19218281 -0.025653245 -0.34358537 -0.060922597
0000e0 4f bb ea 3e 40 8f 92 be 72 64 7e 3d 79 54 a7 3d
       0.4584603 -0.28624916 0.06210751 0.08170409
0000f0 8e a2 2c 3e 35 d9 a0 bd 4c 47 d1 bd d1 34 e2 3a
       0.16858885 -0.07853929 -0.10218677 0.0017258172
000100 46 ed 25 bd 71 d4 2a 3c 6f 03 46 be b1 10 0f 3e
       -0.040509485 0.010426627 -0.19337247 0.13971211
000110 f2 f5 a5 bd d9 5c 81 bd 6b df c7 be d0 e8 04 3e
       -0.08103551 -0.063165374 -0.39037642 0.12979436
000120 5b b4 bf 3d cd 6a 12 be 2a c8 ae 3d 60 2b 8e bd
       0.09360572 -0.14298554 0.08534272 -0.06941867
000130 1b c3 db bd 75 20 60 3b 73 a4 52 3d d9 76 8c bd
       -0.10730573 0.0034199033 0.051426362 -0.06858606
000140 83 57 c4 bc 9f ff 8a bd e3 0d a7 be 5a 78 91 3e
       -0.02396751 -0.06787037 -0.32627782 0.28412133
000150 3c 22 16 be 18 79 81 3e d4 90 15 3d 6f 49 8a bd
       -0.14661497 0.252877 0.036515072 -0.067522876
000160 a2 30 1e bc 73 cd 69 3d 28 3e cf 3d c1 ca 8a 3d
       -0.00965515 0.057080697 0.10119277 0.067769535
000170 4b 9d a6 3d 09 db dd 3d 41 52 4a 3e b0 f7 55 bd
       0.0813547 0.10832793 0.1975794 -0.052238166
000180 87 e9 f4 bc 2d b0 01 3d 95 2c 47 be 95 fd c6 3d
       -0.02989651 0.031662155 -0.194506 0.09716336
000190 60 b6 a7 3d f6 2b cd bd cd 23 ff be 7c b9 74 bb
       0.08189082 -0.100181505 -0.49832 -0.0037342003
0001a0 b4 47 19 be 86 fa 30 3d f9 23 11 3e 56 af d8 bd
       -0.14968759 0.043207668 0.14173879 -0.10580318
0001b0 b2 8a 2b be 34 66 1f be 5d 07 dc 3d a7 23 9f bd
       -0.16752127 -0.15566331 0.10743592 -0.07770472
0001c0 22 86 b1 3c e7 38 69 3d a0 e1 0b bd 7e 66 3a 3d
       0.021670405 0.056939032 -0.03415072 0.0455079
0001d0 79 53 81 3d 4e df d5 3d 87 bc eb bd 09 c1 46 be
       0.06314749 0.104429826 -0.11510568 -0.19409575
0001e0 6d b3 6a bc 77 fa 27 3e cf ce 9d 3d d9 7d cc bc
       -0.014325005 0.16404139 0.07705461 -0.024962353
0001f0 eb 5c 25 be 58 44 97 3e 1e 8e 97 3c a6 1a d6 3d
       -0.16148727 0.2954433 0.018500384 0.104543015
000200 f9 22 5b 3c 2e ae 53 be 04 ef e4 bd 5f ce bc 3e
       0.013375037 -0.20671913 -0.11178401 0.368762
000210 f5 53 2f 3c dd a8 cc 3d 82 fb 65 be 86 96 85 3d
       0.010701169 0.099931456 -0.22459224 0.06522851
000220 a3 64 81 3c bf 82 10 bc c1 5d 04 3e 37 69 51 be
       0.015795058 -0.008820235 0.1292639 -0.20450293
000230 5a e9 0d bf 47 a4 94 bd 02 6b 42 bd 9d 56 49 3e
       -0.5543419 -0.07257896 -0.04746533 0.19661947
000240 2b 50 50 bd 56 01 c8 3c e6 24 12 3d 35 f9 68 3e
       -0.050857704 0.0244147 0.03567972 0.22751315
000250 ad 95 dd 3d b8 74 98 3d 55 87 af bd 4b ac d7 bd
       0.10819564 0.07444137 -0.085707344 -0.10530909
000260 e2 1c 56 3e 3e ec 8e 3d 48 ea 40 3e ab 01 49 be
       0.20909455 0.06978653 0.18839371 -0.19629543
000270 44 04 ef 3d b4 60 e5 3d 4e 0c b8 3d 2a a8 a5 3d
       0.116707355 0.11200085 0.08986722 0.080887154
000280 f0 8a 71 bd fd 93 99 3d 91 28 e7 bd 3b ec fa 3d
       -0.05897039 0.0749893 -0.11287034 0.12252089
000290 72 33 6f 3e 6c c0 d3 bd 51 74 c8 be fa f7 ce 3d
       0.23359469 -0.10339436 -0.39151242 0.101058915
0002a0 83 be 45 bd b7 8f ac bd a3 d5 56 bd e0 ce 4c be
       -0.04827739 -0.08425849 -0.052449834 -0.20000792
0002b0 16 11 e0 be a6 e3 c2 bd 82 3b 26 3e e8 1c 2b bd
       -0.43763036 -0.09516077 0.16233638 -0.041775614
0002c0 9a bb 7c bd 70 f0 48 be 08 3c 18 3e 04 d7 26 3e
       -0.06170235 -0.1962297 0.1486665 0.1629296
0002d0 0c c6 99 bd 2a 74 50 bd bb 8d c3 bd f4 fb 2e be
       -0.075084776 -0.050892033 -0.09548517 -0.170883
0002e0 38 2e 82 3e 67 f2 0c 3e 91 da ac 3d 3c ad 1d be
       0.25425887 0.13764344 0.08440126 -0.15398115
0002f0 3f 71 0d 3d 26 ab 6a 3d e9 88 c5 3d 17 a1 73 3d
       0.034531828 0.057292126 0.09645254 0.0594798
000300 e9 49 c8 bc 8b 68 0e 3e 6e b1 24 bc bd c2 6c 3e
       -0.024449306 0.13907067 -0.010052068 0.23121162
000310 9f 15 82 3e f6 29 6d 3d 87 e5 b8 be c2 ed 0a bd
       0.2540712 0.057901345 -0.36112615 -0.03391815
000320 58 23 0c be 38 27 db bd 36 5b 2d 3e fb d0 63 bd
       -0.13685358 -0.1070084 0.16929325 -0.05561922
000330 29 13 2f be d9 46 41 bd de 3f 16 3e b0 92 a4 bd
       -0.17097153 -0.047186706 0.14672801 -0.08035791
000340 ca 42 09 be bc a0 65 be 77 35 7e be 49 55 64 3c
       -0.13404384 -0.22424597 -0.24825083 0.013936349
000350 56 84 31 3c 44 98 02 be 45 91 5e be 28 09 0d 3e
       0.010834774 -0.12753397 -0.21735103 0.13773024
000360 8f ec 60 be 60 ab 2a 3e 76 e8 7d 3d bb 57 af bd
       -0.2196524 0.16666937 0.06198927 -0.08561655
000370 4f 36 44 3e da 44 2d bd e8 fe 56 3d 1c df e0 3d
       0.19161342 -0.04230199 0.05248919 0.10980055
000380 91 c1 1b 3d 3e e5 e7 be 92 fc 86 3d fc 6e 12 be
       0.038026396 -0.45292085 0.06591143 -0.1430015
000390 d3 ce 33 be 32 cb 21 3e 94 9f 23 be d4 c2 c1 3d
       -0.17559366 0.15800169 -0.15978843 0.09460989
0003a0 26 36 5f bd 5f 6d 15 be 70 5d 79 3d cc 41 aa bc
       -0.054495 -0.14592503 0.060880125 -0.020783328
0003b0 b6 dd 06 3e 67 1e a2 3d 38 5c 3f 3e 1d 95 9a bd
       0.13170514 0.07915955 0.18687522 -0.07547972
0003c0 e2 bf ac 3d 4e 95 a0 3d 59 16 dc 3c 84 3e 78 be
       0.08435036 0.078409776 0.026866125 -0.24242598
0003d0 bb 3e cf 3d c1 85 04 be 2d b0 93 be 62 dc 6f be
       0.10119387 -0.12941648 -0.2884535 -0.23423913
0003e0 c7 5a 26 3e b7 e3 b8 be c7 26 04 be 4a a2 f7 3d
       0.16245566 -0.36111233 -0.12905417 0.12091501
0003f0 5d 95 4f 3d e7 7f 86 be 74 a7 f9 bd d8 84 25 be
       0.050679553 -0.26269457 -0.12190142 -0.16163957

convs.1.apply_func.2.bias f4 [32]
000000 40 af a8 3f f6 13 9b 3e 00 f5 a9 3e ec 35 82 3f
       1.3178482 0.30288666 0.33194733 1.0172706
000010 01 c6 72 3e 18 82 3d 3e bc 92 0f 3f c6 7c 97 3e
       0.23708345 0.18506658 0.56083274 0.29587382
000020 29 53 b6 3e e6 f5 67 3f 99 69 68 3e e8 6b ea 3e
       0.3561032 0.90609586 0.22696532 0.4578545
000030 a4 b3 23 bd 42 57 2d 3f ab fc 88 bc af 6b b9 3e
       -0.03996624 0.6771127 -0.016722044 0.3621497
000040 64 c7 89 3e 4a c7 a6 3c cf 39 b1 3e d4 3c 77 be
       0.26909935 0.0203587 0.34614417 -0.24144298
000050 d2 6d 56 3d 43 40 7e 3e 86 c0 82 bf a5 48 96 3f
       0.052350827 0.24829201 -1.0215003 1.1740919
000060 ae 9c 4c 3e 7d 2e 17 3d f7 f3 a0 3e 9f 6a 20 be
       0.19981644 0.03690957 0.3143613 -0.15665673
000070 6f 6e 89 3c 98 87 e8 3e 09 7d 9f 3e 1e fb e3 3e
       0.016776292 0.4541595 0.31150082 0.44527525

convs.2.apply_func.0.weight f4 [32, 32]
000000 60 f7 d9 bd 20 35 29 3e 47 69 93 3d d5 81 6c be
       -0.10642886 0.16524172 0.071978144 -0.23096402
000010 15 97 c7 bc e8 a7 e9 3d 47 22 06 3e be e6 26 3e
       -0.024364034 0.11408979 0.13099013 0.16298959
000020 27 54 f2 bc d6 a8 b3 3d 21 12 c8 bd 13 c2 4d bd
       -0.029581143 0.08772437 -0.09769083 -0.05023391
000030 e8 68 25 bf 6b 38 73 3c cc 1c ea bd 22 17 66 3e
       -0.646132 0.014844994 -0.11431274 0.22469762
000040 c0 6c 19 3e b2 d1 84 3d d0 01 c2 bd 04 64 26 be
       0.14982891 0.06485309 -0.09473002 -0.1624909
000050 8d 5a c8 3d 48 df 39 bd 7b 09 2f be bd 61 4e be
       0.09782896 -0.045378953 -0.1709346 -0.20154472
000060 f5 ea 83 3d 56 2e cd be 8c 95 a5 3d bb 06 99 bd
       0.06441299 -0.40074414 0.080851644 -0.07471987
000070 10 ec 0a bd 79 81 e9 bd dc 92 1c be 10 21 17 bd
       -0.033916533 -0.11401648 -0.15290397 -0.036896765
000080 70 7b 10 be fe d3 98 bd d3 9b 80 3c 12 bd b1 bd
       -0.14109588 -0.07462309 0.015699303 -0.086786404
000090 dd 80 19 3c 8b 2b 37 bc 0b 46 44 3d 02 e0 00 be
       0.009369102 -0.011179815 0.04791836 -0.12585452
0000a0 37 d3 1f bd 21 26 90 bd b6 54 a0 3d 1e c5 8a bd
       -0.03901979 -0.070385225 0.07828657 -0.06775878
0000b0 5d e4 a1 3d 4c 4d 0b 3e e6 49 7d 3d 01 1a 90 3c
       0.07904885 0.13603705 0.061838053 0.017590525
0000c0 73 ca 09 be 84 cc e9 3d 29 df 00 3e ac 15 0d be
       -0.13456134 0.114159614 0.12585129 -0.13777798
0000d0 74 33 04 3e 2a 41 11 3e d0 6f b0 3d 97 e7 43 bd
       0.12910253 0.14185014 0.086150765 -0.047828283
0000e0 7f 6e 60 3d a7 70 58 3d ea a5 1b bc 37 43 2d bd
       0.054792877 0.05284181 -0.009500006 -0.04230043
0000f0 94 11 3e 3d ae 6f 53 3d b3 35 6d be 7f 13 e2 bc
       0.046403483 0.051620178 -0.23165016 -0.027597187
000100 8a cf 60 be e5 06 21 3e ec cd a7 3d 9f 32 93 bd
       -0.2195417 0.15725286 0.08193573 -0.071873896
000110 0d a2 a7 be d6 c0 f0 3c d0 89 2a 3e d5 e0 b7 3d
       -0.32740822 0.029388826 0.16654134 0.0897843
000120 05 74 2b 3d d8 0b 6e be cf 71 3a bc d7 7c 62 bd
       0.04185869 -0.23246706 -0.011379673 -0.055294838
000130 07 c7 96 be d2 50 4d 3e 8d 89 98 3c 3b 3f 39 3e
       -0.2944872 0.20050362 0.018620277 0.18090527
000140 e2 8e ef 3d 7e 49 21 bc 45 92 4a 3d 50 c3 3f bb
       0.116971746 -0.009844182 0.0494559 -0.0029260702
000150 b0 d7 8e bc ac f9 75 3e c5 c8 90 be 43 61 6d bd
       -0.017436832 0.24021024 -0.28278175 -0.057954084
000160 5f 5f 18 be 93 cc aa bd 36 e4 0d be e3 4d 39 bd
       -0.14880131 -0.08339801 -0.13856587 -0.045240294
000170 6e 9e 7d bd 52 c0 1b 3d 7b 7a 5c be 38 a6 a5 be
       -0.06191867 0.038025208 -0.21531098 -0.32353377
000180 0d 91 8a be 2b e4 2f 3e 2b e7 bd 3d 6f dd 3f be
       -0.2706379 0.17176883 0.092726074 -0.18736814
000190 ef 43 e2 bc c6 da 15 be a7 97 91 3d 9a ea 13 bd
       -0.027620284 -0.14634237 0.071090035 -0.036112405
0001a0 70 7d 37 bd e3 0d b0 3d cb 64 7b 3e ce dc 3d be
       -0.04479736 0.08596399 0.24550168 -0.18541262
0001b0 cb 46 5a 3d 3e 2e 86 3e 16 04 0a be 00 40 66 bd
       0.05329017 0.26207155 -0.13478121 -0.05621338
0001c0 8c a9 76 be c4 be be 3d 27 a2 57 3e 3d a6 3f bd
       -0.24088115 0.093137294 0.2105795 -0.046789397
0001d0 36 8c ae bc 2e a4 f0 3d ba 42 65 be 6a f9 fe bd
       -0.021307092 0.11750065 -0.22388735 -0.12449916
0001e0 a5 0f 4d bd 90 58 fa 3d b3 23 02 be a7 6f a3 bd
       -0.050063748 0.12223923 -0.1270893 -0.0798028
0001f0 2f 2c a5 bd d2 42 b7 bd 41 bf 0c 3a 5f 10 33 be
       -0.08065068 -0.08948292 0.0005369075 -0.17486714
000200 64 7f b1 bd 00 cb 1f be 7c 4d 96 3c 8c aa 05 be
       -0.08666876 -0.15604782 0.018347494 -0.1305334
000210 5c ad 85 3c 6d 36 30 be 5a a8 a6 3d 9d 7c ba bd
       0.016318016 -0.17208262 0.08137579 -0.09105799
000220 cd 7f 20 be b6 2d 5c be ee 49 20 3d 17 e6 8d bd
       -0.15673752 -0.21501812 0.039133005 -0.06928652
000230 2b 14 41 be 76 47 12 be 9b c8 4b 3d 3b 92 01 3e
       -0.1885535 -0.14285073 0.04975186 0.12653439
000240 cd 51 7a 3e 6d 0e d7 bd ca ff 8c bd 2b b8 a3 3d
       0.24445267 -0.105007984 -0.068847254 0.079941116
000250 58 4a fd bc a9 25 ce bd bd 70 95 bd 5f 59 06 3e
       -0.030919239 -0.10065777 -0.07296894 0.1312003
000260 5f 75 03 3e 8d ef af bd a6 6f 42 be 81 05 5a 3d
       0.12837742 -0.085906126 -0.18987903 0.053227905
000270 c2 1a 03 bd c7 4c 36 3d 55 2f 3b 3e 91 51 dc 3d
       -0.03200794 0.044506814 0.18279774 0.10757745
000280 da ef 26 3e 98 e0 69 3d 2d 6f f5 3d da 2c be 3c
       0.16302434 0.057098955 0.11984096 0.023214746
000290 c9 08 33 be 14 22 34 3d 55 61 08 be 33 0a 12 3e
       -0.1748382 0.043977812 -0.13318379 0.14261703
0002a0 90 34 df bd ea 12 cb 3c 56 8a e9 bd d5 83 25 be
       -0.108986974 0.024789292 -0.114033386 -0.16163571
0002b0 11 9e 2f be db 64 16 3e 3f c5 9a bc 81 6a 66 3c
       -0.17150141 0.14686911 -0.018892882 0.014063478
0002c0 e7 3b 5d 3e ed 98 ad bd 93 3c d0 3d 97 5e 46 be
       0.21604882 -0.08476434 0.101678036 -0.1937202
0002d0 9c ae 9e bd 53 d8 0b bd 22 86 62 be c0 63 86 bc
       -0.07748148 -0.03414185 -0.2212148 -0.016404986
0002e0 a3 1a 4e bd 96 c8 42 be 97 63 30 3e 05 f6 b7 3b
       -0.05031837 -0.1902183 0.1722549 0.0056140446
0002f0 40 5d d8 bd 7b 63 68 3d 81 20 18 3e 65 bf 91 bd
       -0.10564661 0.056735497 0.1485615 -0.07116584
000300 a1 a4 90 be 9e 0f 12 3e 13 1a 6d 3d ae 0d d7 bd
       -0.28250602 0.1426377 0.057886194 -0.10500656
000310 bd 35 7a be 48 be a3 bd df 37 2e 3e 50 77 e5 3d
       -0.24434562 -0.07995278 0.170135 0.11204398
000320 fb 53 94 3d 74 c4 6b be b6 ee 09 3e 73 3c 0d 3e
       0.072425805 -0.2302416 0.13469967 0.13792591
000330 13 d0 17 be 36 cc 65 3e ab 8b 55 3d f7 43 a8 3d
       -0.14825468 0.22441182 0.05213515 0.08216088
000340 18 27 e3 3d 78 97 b6 bd 66 32 15 bb fb 04 16 3e
       0.11091441 -0.08915609 -0.0022765636 0.14650337
000350 33 d5 7f 3e 85 9f 26 3e 10 25 fd bc 3a fb e4 be
       0.24983673 0.1627179 -0.030901462 -0.4472292
000360 36 70 ab be dc bf 2b bd 34 ce a0 be ed 65 b9 3d
       -0.33484048 -0.04193102 -0.3140732 0.09052644
000370 25 c7 b5 bd 02 48 d8 bd 6e 3a c3 be d0 16 28 be
       -0.088758744 -0.105606094 -0.38130516 -0.16414952
000380 f1 10 19 bd ff 96 ea 3d d2 dc 84 3e 94 90 79 be
       -0.037369672 0.114545815 0.25949723 -0.24371558
000390 77 ff 67 be 97 8c 4e be 1c 9c 59 3e 0f e6 12 3e
       -0.22656046 -0.20170818 0.21250957 0.14345573
0003a0 35 36 9d 3a 75 b2 48 be 11 51 6a be 4c 6c 51 3d
       0.0011994304 -0.19599326 -0.22882487 0.05112867
0003b0 42 03 96 bb 2b ba 6f 3e 6b a3 7a 3d 11 b6 bc 3d
       -0.004578025 0.23410861 0.061191004 0.09214414
0003c0 69 76 39 bd a2 6e 0c 3e eb 46 e1 3d 08 6e af 3d
       -0.04527894 0.13714078 0.10999855 0.08565909
0003d0 92 58 02 3e b8 5e ff 3d 57 31 02 bd fe e6 9f be
       0.127291 0.12469238 -0.031785335 -0.3123092
0003e0 8a 68 85 be c3 64 4f be d4 a9 1a be 95 dc 10 3e
       -0.2605632 -0.20253281 -0.15103847 0.14146645
0003f0 ba 44 89 bd 23 e2 a9 bd 5d e0 90 be 90 60 92 be
       -0.06702562 -0.08295085 -0.28296176 -0.28589296

convs.2.apply_func.0.bias f4 [32]
000000 92 26 f1 3f 57 8c 22 bd a3 5a 0e 3e 37 3a 4e bf
       1.8839896 -0.03968462 0.13901763 -0.8055758
000010 fc e3 71 be f6 67 94 3f 90 24 db 3c 90 ac 2b 3e
       -0.23622125 1.1594226 0.026750833 0.16765046
000020 6d df f6 be ef b9 b2 be 23 ab 1c be 36 7d 88 3e
       -0.48217335 -0.3490748 -0.15299658 0.26658028
000030 7c 53 54 be 90 35 6a be 2f 9a bf 3f e7 68 20 be
       -0.20734972 -0.22871995 1.4968928 -0.15665017
000040 c3 35 cf bc b2 b7 d3 3f a6 60 49 3d 7f df 16 3e
       -0.02529419 1.6540434 0.049164437 0.14733694
000050 1e e8 91 be d5 ee 9b 3f 55 50 d9 3c d9 10 91 3f
       -0.28497404 1.2182261 0.026527563 1.1333266
000060 ff ee c0 3f 93 5b 22 3d 5f 90 df 3f 8e 56 73 be
       1.5072936 0.039638113 1.7465934 -0.23763487
000070 3e 4b c4 bc c2 7c 0d 3e bf c3 27 bf 90 9e 0e 40
       -0.02396166 0.13817123 -0.6553306 2.228428

convs.2.apply_func.2.weight f4 [32, 32]
000000 0a f1 cf 3d bf 2d 69 3d f7 e2 84 3e 4c 5b e4 3d
       0.101533964 0.056928392 0.2595441 0.11150226
000010 35 87 c5 bd fa ec 8c 3e 33 a0 28 3e 17 15 8b 3e
       -0.09644929 0.2752455 0.16467361 0.27164528
000020 00 91 c0 3c 66 57 19 bd 46 ec 3b bd a6 54 a9 3e
       0.023506641 -0.037436865 -0.045879625 0.33072394
000030 15 34 df bb 14 75 24 be 5e df 08 3e 60 d5 65 3a
       -0.0068116286 -0.16060287 0.13366458 0.0008767452
000040 8f 09 9b bd 1d 37 2c be e1 54 4d be 1c f3 b7 3b
       -0.075701825 -0.16817899 -0.2005191 0.0056136977
000050 75 eb da bd 07 38 b6 bd a6 4b 8b be 48 35 b7 be
       -0.10689441 -0.08897405 -0.27206153 -0.35782838
000060 f4 ab f4 bd 66 b9 b5 bd 0e ff 09 3e f2 09 44 be
       -0.1194686 -0.088732526 0.13476202 -0.19144419
000070 94 44 a8 bd ee 45 ae bc 2b 5c 86 be 27 e1 81 3e
       -0.08216205 -0.02127358 -0.26242194 0.2536709
000080 ce ef 9d 3e 09 82 43 3d d2 8e 2e be 24 40 94 bd
       0.3084702 0.047731433 -0.17046669 -0.07238796
000090 20 55 13 be 46 a3 04 bd c0 6a 44 be 10 e8 8d be
       -0.14387941 -0.032382272 -0.19181347 -0.27716112
0000a0 c0 11 95 bd f3 9c 0a bd be 7d 35 bd c0 8b d6 bc
       -0.07278776 -0.033841085 -0.04430937 -0.026189685
0000b0 99 a6 32 bd 46 35 a7 3d fc 2c a2 3e d0 83 8c be
       -0.04361591 0.08164458 0.31674945 -0.27444315
0000c0 39 a1 da bd f1 2b 9f 3e 6f a8 20 be ec 5b 45 be
       -0.10675282 0.31088212 -0.15689252 -0.19273347
0000d0 8d 0f 81 3d 4f 27 0f 3c 33 42 86 bd b2 a3 6c 3e
       0.06301794 0.008737399 -0.06555595 0.2310932
0000e0 c4 87 e5 3d 81 21 7a 3d 31 71 b8 bc 7c c7 04 be
       0.11207536 0.061067108 -0.022514911 -0.12966722
0000f0 e2 cd 78 3d 44 cf 0e be 99 62 67 be 84 27 b7 3e
       0.06074322 -0.13946253 -0.22596206 0.35772336
000100 c0 73 a0 3e d8 5c 41 be 19 e2 69 bb 74 7a 04 3e
       0.3133831 -0.18883073 -0.0035687743 0.12937337
000110 40 37 0e bd fa cf df bd f9 53 17 3d 88 8b d3 3d
       -0.03472066 -0.1092834 0.036945317 0.10329348
000120 fd f9 9d bb 77 65 01 be 51 4b d5 bd 82 15 94 3e
       -0.0048210607 -0.12636362 -0.10414756 0.2892266
000130 40 09 99 bd 74 ba 8b bd 1d f8 52 3e b9 00 7d bd
       -0.074724674 -0.068226725 0.2060246 -0.061768267
000140 14 a3 31 be f4 a1 ea bd 6f 23 a5 bd b5 4a c3 bd
       -0.17347366 -0.11456671 -0.08063399 -0.095357336
000150 b1 13 88 be 3a e3 78 be 0f aa fe bd 7e 33 a0 be
       -0.26577523 -0.2430543 -0.1243478 -0.31289285
000160 2a ea 8a bc d3 fc d9 3d 74 7f 24 be 79 23 95 bd
       -0.016957361 0.106439255 -0.16064245 -0.072821565
000170 cd 5c f7 3d 16 ff 9a be 3a 46 da bc f9 aa f3 be
       0.12078247 -0.3027274 -0.026644815 -0.4759138
000180 92 9b 78 3e 35 f1 a0 bd 87 f1 ce 3d f2 9b 2e bd
       0.24278095 -0.078585066 0.101046614 -0.04262919
000190 1e 9b d3 bd ac fe 5b 3d 11 5c c3 3c 5a 74 1a 3e
       -0.10332321 0.05370967 0.023847612 0.15083447
0001a0 6b 0c 61 bc a2 bf 9f 3d 4c ec 02 be c8 a8 85 3e
       -0.013735871 0.07800223 -0.12785453 0.26105332
0001b0 e9 d8 7b be c6 58 c6 bd 7a 17 4a 3d c6 c3 5a bd
       -0.24594463 -0.09684901 0.049338795 -0.05340936
0001c0 7d 59 37 be 91 f4 c2 3b 90 77 be 3d 39 e8 0c 3c
       -0.17905231 0.0059495647 0.093001485 0.008600288
0001d0 0d 41 84 be 5d cd f4 bd 4a ac 88 be da ba 84 bd
       -0.2583088 -0.119532324 -0.26693946 -0.064809516
0001e0 40 0a 20 be fe 88 39 be fc f5 70 bd 03 af 04 be
       -0.1562891 -0.18118665 -0.05882834 -0.12957387
0001f0 93 26 b2 bc ac 09 e9 3d 91 88 0a be b3 7b df 3d
       -0.02174691 0.11378798 -0.13528658 0.10912266
000200 a4 e8 c4 3d 41 be d8 3a fe 2b 83 3e 41 d5 1c bd
       0.09614685 0.0016536192 0.256195 -0.038289312
000210 e6 da 95 bd bf 5b 94 bc de 5f 67 3d 5e c0 8f 3d
       -0.07317142 -0.018110154 0.05648791 0.07019113
000220 5a f3 db 3b 28 21 19 bd 73 97 7e 3c d0 b8 ac 3e
       0.0067123594 -0.037385136 0.015539038 0.3373475
000230 14 7d 99 3c d7 91 00 be 74 45 dc 3d 82 2c 78 3d
       0.0187364 -0.12555633 0.10755435 0.06058932
000240 cd 11 e3 bd c1 7b dd bd fd d2 d6 bd 2a a2 0f 3e
       -0.110873796 -0.1081462 -0.104894616 0.14026704
000250 48 5e 28 be f4 2a 35 bd 73 9c 99 be ef 18 32 be
       -0.16442215 -0.044230416 -0.30002174 -0.17392324
000260 1c 7a 70 bd 15 94 a7 3d 05 e8 83 3d a5 21 1e be
       -0.058710203 0.08182541 0.064407386 -0.15442522
000270 c8 34 8b 3d 3b 2b f1 3c cf 9c 83 be 63 5d 3e 3e
       0.067971766 0.02943956 -0.25705573 0.18590312
000280 b3 13 64 3e 38 53 ff bd 78 3a 30 be d0 97 07 be
       0.2227314 -0.124670446 -0.17209804 -0.13241506
000290 29 27 0b be 27 b3 19 3d ea 28 c5 bd 7e 49 b6 3c
       -0.13589157 0.03752437 -0.09626944 0.02225184
0002a0 79 1d 43 3c 3d 87 d8 bc eb 00 14 be f0 47 28 bd
       0.011908882 -0.026431674 -0.14453475 -0.04108423
0002b0 c7 9d 85 bd c7 54 98 bd 5e 38 71 3e 27 ad a7 bd
       -0.06524234 -0.07438045 0.23556659 -0.08187323
0002c0 a5 62 1c be c2 c1 ca 3e 13 94 79 3b 24 21 40 be
       -0.15272005 0.3960095 0.0038082644 -0.18762642
0002d0 6f c1 75 bd b1 a7 04 bd 0c eb 0b be 87 47 69 3e
       -0.059998926 -0.032386485 -0.13663882 0.22781192
0002e0 e7 bf 8e 3e fc 9c e3 3d 14 f7 10 3e 4d 4d ff bc
       0.27880785 0.11113927 0.14156753 -0.03116479
0002f0 da 9c 05 be a0 33 09 be 44 ad 9f be d4 7f 78 3e
       -0.13048115 -0.133986 -0.3118688 0.24267513
000300 16 ee 41 3e 41 e9 9f bd ff cb 09 3e 2f 28 b6 3c
       0.18938479 -0.078081615 0.13456725 0.022235958
000310 92 0c 8d bd 16 33 eb 3d ae 4e 76 3d 8e 37 e6 3d
       -0.06887163 0.11484353 0.06013363 0.11241065
000320 a0 ee b8 3d 03 9a b8 bd 55 57 1c be b7 33 69 3e
       0.09029889 -0.090137504 -0.1526769 0.22773634
000330 49 8c 31 bc 89 31 ea bd 15 80 54 3d f8 e0 b3 bc
       -0.010836669 -0.11435229 0.05187996 -0.02195786
000340 ca c3 2e be ac 68 18 be 96 dc ad bc 0e fe 16 3d
       -0.17066875 -0.14883679 -0.021223348 0.03686338
000350 cb 6c 91 bd ee 0a a4 bd 71 88 8c be bc e7 fe bd
       -0.07100829 -0.08009897 -0.27447847 -0.124465436
000360 fc e6 49 bd df 93 5e 3d 07 04 f6 3c a3 83 02 be
       -0.04929255 0.05434024 0.030031217 -0.12745528
000370 ac 88 b6 bc 0f ac 18 bd e8 7a 11 be 2b e7 bd 3d
       -0.022281967 -0.037273463 -0.14207041 0.092726074
000380 df 8b 06 3e 98 77 f9 bd cc 0f 49 3e b6 f2 28 3d
       0.13139294 -0.12181014 0.19634932 0.041247092
000390 2a 5e ab bc aa 36 9f 3d b4 10 38 3d 4a 59 f8 bd
       -0.020918924 0.07774098 0.044937804 -0.121264055
0003a0 2c 1c bf 3d ac bb 53 be 14 ef cd bd c7 a5 92 3e
       0.09331545 -0.2067706 -0.10055366 0.28642103
0003b0 32 1d 42 bd cf b1 d6 bd d4 5a 34 3c 2b 2f 44 be
       -0.047391124 -0.10483133 0.011007983 -0.19158618
0003c0 ea b8 1b be 7d d7 d8 3c d0 cf 28 be 96 7e 8d bd
       -0.15207258 0.02646994 -0.16485524 -0.0690891
0003d0 64 29 64 bd 29 a2 0c be 4b a6 18 be b2 a6 55 be
       -0.055703536 -0.13733734 -0.14907186 -0.2086437
0003e0 64 0a 07 be 93 43 3a be b5 46 9c 3d 44 2f 26 3d
       -0.13187557 -0.1818984 0.07630674 0.04057242
0003f0 90 8d 87 3d 89 02 29 be e7 8e 83 bd 27 ad f7 3d
       0.06618798 -0.16504873 -0.06423741 0.12093573

convs.2.apply_func.2.bias f4 [32]
000000 31 8b 05 bc b5 65 a3 3f 2a e0 b1 3c a1 81 3a 3e
       -0.008150862 1.2765414 0.021713335 0.18213512
000010 3b bb 2d 3e b9 61 21 3f f5 cd 5e 3c 8c 35 b4 bd
       0.16965954 0.6303974 0.013598909 -0.08799276
000020 a4 90 bb 3d 03 1e 0a 3e 1c c3 00 3f 6c a8 84 3d
       0.091584474 0.13488011 0.50297713 0.064774364
000030 3b b1 b1 bd 0e 46 76 3f 57 f7 18 3e 81 e8 0c 3f
       -0.08676382 0.96200645 0.14938103 0.5504227
000040 3d 4e 4e 3f 72 91 10 3f 91 5c 4a 3f 99 ee 39 3f
       0.8058813 0.5647193 0.79047495 0.72629696
000050 62 1a 2f 3e 4c 29 13 bd 36 ed 22 3e 96 34 af 3d
       0.17099908 -0.035928056 0.15910801 0.08554952
000060 f9 5b 60 3f cf 6f d3 bc 2d 84 b6 3f b9 cd 68 3f
       0.8764034 -0.02581015 1.4259087 0.9093891
000070 d8 bd 70 3e 47 1e 84 3e 6b c7 82 3e b4 c6 81 3c
       0.2350992 0.2580435 0.2554277 0.01584182

bns.0.weight f4 [32]
000000 40 48 92 3f 52 0a 6a 3f 34 89 23 40 08 66 f2 3f
       1.1428299 0.91422 2.5552492 1.8937387
000010 25 40 e7 3f 05 ff 7f 3f 05 ff 7f 3f dd 1e 86 3f
       1.806645 0.99998504 0.99998504 1.0478169
000020 21 0f 1e 40 1e d0 12 40 5b 91 d6 3f 27 3e bd 3f
       2.4696734 2.2939525 1.6763109 1.4784592
000030 07 ee 0c 40 de 1e 86 3f 15 8c 04 40 18 2d 0e 40
       2.202028 1.047817 2.07105 2.2215023
000040 40 29 09 40 05 ff 7f 3f 05 ff 7f 3f 7f b1 14 40
       2.1431427 0.99998504 0.99998504 2.3233335
000050 e7 84 01 40 dc aa 18 40 05 ff 7f 3f a0 44 08 40
       2.0237367 2.3854284 0.99998504 2.1291885
000060 df 1e 86 3f 2a df 04 40 4f 86 13 40 65 a9 74 3f
       1.0478171 2.0761209 2.3050725 0.95570976
000070 59 d0 1e 40 b5 c8 17 40 6d 18 75 3f dd 1e 86 3f
       2.4814665 2.3716252 0.95740396 1.0478169

bns.0.bias f4 [32]
000000 6b fc 9f bf 84 71 94 bf 22 fc 28 bf f8 39 8e bf
       -1.2498907 -1.1597142 -0.66009724 -1.1111441
000010 de ab 8e bf 77 41 98 bf 9a 2b aa bf 98 e3 a4 bf
       -1.11462 -1.1894978 -1.3294556 -1.2881956
000020 d6 73 1f bf 9a 34 3c bf 3f 1e 94 bf 28 af a0 bf
       -0.62286127 -0.73517764 -1.157173 -1.2553453
000030 12 d2 70 bf 36 c8 a2 bf 3f 48 70 bf 6d 20 52 bf
       -0.9407054 -1.271735 -0.9386024 -0.8208073
000040 08 af 83 bf 71 71 ae bf c9 06 9a bf ed 33 7d bf
       -1.028779 -1.362837 -1.2033321 -0.9890736
000050 ae e2 9c bf e0 ad 2a bf fc 8a 9a bf 17 af 92 bf
       -1.2256677 -0.6667156 -1.2073665 -1.1459683
000060 42 b5 a6 bf 02 af 8a bf 73 c3 2d bf 06 ab 96 bf
       -1.3024065 -1.0834658 -0.67876357 -1.1770942
000070 fb 65 2a bf 64 7a 5f bf 03 09 a7 bf 1c a2 a8 bf
       -0.6656186 -0.8729613 -1.3049625 -1.3174472

bns.0.running_mean f4 [32]
000000 27 08 5c 44 bb 40 0f 37 ea dc 41 43 99 46 83 44
       880.1274 8.538535e-06 193.86295 1050.2062
000010 4c c8 3c 43 8e a1 03 31 ae 50 e1 29 46 40 4b 2d
       188.78241 1.9154842e-09 1.0006003e-13 1.1553486e-11
000020 4a c7 2d 43 56 ac 3a 43 7b 6a 95 45 23 8b 9a 3a
       173.77847 186.67319 4781.31 0.0011790734
000030 f4 18 22 43 a1 25 c1 2e 77 10 12 43 da 8e 54 43
       162.09747 8.783308e-11 146.06432 212.55801
000040 83 37 0c 44 f6 e5 00 29 27 51 eb 37 90 54 3b 43
       560.8674 2.862117e-14 2.8051973e-05 187.33032
000050 30 d1 8a 44 8f 58 26 43 d7 f1 ed 2f 24 41 4c 45
       1110.5371 166.34593 4.3281886e-10 3268.0713
000060 66 f3 e7 2d ff 25 8f 43 8c 87 30 43 d0 f1 a0 2b
       2.636975e-11 286.29684 176.52948 1.14358e-12
000070 13 17 23 43 c5 d6 97 44 5c 18 11 2c 54 4f 8d 2d
       163.09013 1214.7115 2.0619262e-12 1.6065073e-11
