prompt_module/save_model/zheng_model/10000_max_test/0.008_0.1/best.pt (torch, 66458 bytes, 36 tensors)

convs.0.apply_func.0.weight f4 [32, 256]
00000000: fe53 f5b9 5c54 093d 14b3 52bd 7e66 3cbd
00000010: f232 c5bc ea4b 893c 3e4f a2ba ccfa 4a3d
00000020: 6ebf b5bb 4a7b 873c aabb 9abc 6e48 49bc
00000030: b691 74bd 508b 29bd e60e d3bc feba 173b
00000040: 5e69 ca3c 169b 193d 8a8d 2dbd faf4 debc
00000050: 96f7 b93c 4c94 543d 46bd 52bc 5a91 3f3d
00000060: 3e0d 25bc 0eb5 d83b 48cd 673d cc7b 6dbd
00000070: 6429 21bd de9e 81bc da93 c7bc 262f 5d3d
00000080: 18ef 25bd beb0 ebbc 18da 32bd 74c2 6fbd
00000090: 0270 15bd 9c0e 5c3d ba76 e43c fe26 f83c
000000a0: 3e6a 573b 383f 03bd be3e 2d3c 9c06 6fbd
000000b0: 18fa 38bd c4f9 03bd 2485 213d 2419 163d
000000c0: c611 e3bc 1ecb 13bb 3eba 233d 807f 7e3d
000000d0: 2234 cb3c c655 0a3c fca4 2b3d bebb 16bd
000000e0: f6d0 3e3c 6a7a 46bd 166e 31bd d03e 04bd
000000f0: 8aaa e73c f6e7 cd3c 68a4 17bd c6ad 9a3c
00000100: 6c89 0c3d 1e3f 01bc 3e64 1c3b fe43 6d3c
00000110: fed0 1e3d 46cf 753d 9447 45bd eaa1 bbbc
00000120: 9638 c93c ce1b 543d e6c5 5e3d 20e2 613d
00000130: 76ca 4b3c f69c 5ebd 8e66 bc3b aa27 20bd
00000140: 8a94 6ebd 3c74 633d eea6 423d fc5d 7fbd
00000150: 06aa 3f3c c680 2cbc b682 28bc 1a5f eabc
00000160: 8ae4 c43c 32a1 17bd dab1 bb3c 1476 013d
00000170: 5a43 373d 4671 bf3c 485f 7dbd fe10 26bd
00000180: 36a6 ff3c 1653 563c 94b3 47bd e668 13bd
00000190: f0d4 703d 527f 2c3d ae3e dfbc d2dc 80bc
000001a0: 76dd 73bd 7e3e 93ba 76c8 40bd a077 45bd
000001b0: 1eb0 61bb 9ebf 193c f2ad d1bc 96e7 173d
000001c0: 36c9 1bbd 6649 683d ce6f 2f3d 62e1 57bd
000001d0: 86db 7ebc 7ed2 383b 1667 153c cedd 723c
000001e0: 5aec c83c de59 753b cad1 f9bc d245 f23c
000001f0: 5491 75bd 9ebb 17bd 3a2b 80bc ea66 f9bc
00000200: 5a1d b3bc b8d2 51bd fed1 59bc f6e2 5a3c
00000210: 74c6 26bd 3e34 52bb fe41 373d ee88 d2bb
00000220: 7eac e33a bead b0bb 0e3d 4f3c 5ec6 223d
00000230: b87e 723d 0493 223d c20c 733d 5e1d 94bb
00000240: 64f8 65bd 3eba f2bc cc4f 2e3d fe6a d4b9
00000250: da7c febc 002d 44bd fe93 6fbd ea10 58bd
00000260: 6eb4 4fbc 5464 0c3d 7267 0a3d 00e5 76bd
00000270: 2cb0 1f3d 8852 48bd ee7b 58bc 1a9a cfbc
00000280: ee3c 45bc 0e0e 49bc b8b8 65bd 420a 5dbd
00000290: 263c 20bc 7ee1 533a b696 e8bc b6de c03c
000002a0: 386a 66bd be36 8abb a021 613d 36d7 d0bc
000002b0: 342b 673d 366c b93c ac07 67bd 72f8 213d
000002c0: ee53 ecbb 6e8f e4bc 12b6 4c3d 52df 4ebd
000002d0: aec2 db3b be64 56bc 14d0 363d 06ec 8e3c
000002e0: ca04 f63c 3ed1 b43c fe3e 76bc 4e5a 57bc
000002f0: fef6 52bd 4ab6 0a3d 2442 4b3d 5a29 2f3d
00000300: aa93 34bd 5eae 363b 8e76 34bd 86ec 0cbd
00000310: 2e2c 15bd 32f9 ae3c c28d 18bd feb9 b2ba
00000320: 9e4f 2c3b 0206 253d f883 41bd 42bf 2fbd
00000330: 3aa6 14bd d42e 333d ca0b b8bc deee 573d
00000340: 9e24 b93c 3eaa 013c feec f3b9 066d 4abc
00000350: 3e7a 003c 2ed3 69bc fe3d e6b9 bea7 023c
00000360: 963e 48bd 782d 06bd d6b7 4e3d 84c1 4fbd
00000370: 1e0f 93bb be3e 7d3d 0ef4 b83c bef0 e73a
00000380: 24da 5dbd 2aa2 fd3c 0658 36bd a656 91bc
00000390: cac8 abbc 36a4 17bc 7e36 333a 9426 533d
000003a0: 7eab ff3b 1e4c 653d 2e99 1c3d c4d8 21bd
000003b0: 52a2 e53c 22f7 34bd 9aff d8bc 3e97 963c
000003c0: ee0e a93c f00e 403d 26d2 a4bc fed3 d138
000003d0: 78cb 033d 5893 77bd 4015 393d 2eb1 53bd
000003e0: fecf 613a de18 2ebc 08d4 06bd d657 073c
000003f0: f0b0 533d e6aa 95bc 54fc 17bd 825b bdbc
-0.0004679262 0.033527717 -0.051440313 -0.04599618 -0.024072144 0.016759831 -0.0012383235 0.049555585
-0.005546502 0.016538281 -0.018888313 -0.012285335 -0.059709273 -0.041392624 -0.02576394 0.0023152228
0.024708446 0.037501417 -0.04237131 -0.027216423 0.022701066 0.05189924 -0.012862509 0.046769477
-0.010073958 0.0066133803 0.056592256 -0.05797939 -0.039346114 -0.015822824 -0.024362493 0.054000042
-0.04051122 -0.0287708 -0.04366502 -0.058535054 -0.036483772 0.05372487 0.027888644 0.03029203
0.0032869722 -0.032042712 0.010574041 -0.058355913 -0.045160383 -0.032220617 0.039433613 0.03664507
-0.027718436 -0.0022551487 0.039972536 0.062133312 0.024805132 0.008443302 0.04190539 -0.03680014
0.0116465 -0.048456587 -0.043317877 -0.032286465 0.028279562 0.025135022 -0.037022024 0.01888169
0.034310743 -0.0078885835 0.002386346 0.014481543 0.03877353 0.060012124 -0.048163965 -0.022904355
0.024563115 0.05178433 0.05438795 0.05514729 0.012438407 -0.05434891 0.00574953 -0.039100327
-0.058247127 0.05553077 0.047522478 -0.06234549 0.011698252 -0.010528749 -0.01028507 -0.028609801
0.024034757 -0.037018962 0.022911955 0.03160675 0.044741966 0.023369443 -0.061858445 -0.04054355
0.031207185 0.013081333 -0.048755243 -0.03598871 0.058796823 0.04211361 -0.027251568 -0.015730295
-0.059537373 -0.0011233834 -0.047066174 -0.048209786 -0.003443725 0.009384064 -0.025595639 0.037086092
-0.038033687 0.056710623 0.042831235 -0.052705176 -0.015555268 0.0028201635 0.009118816 0.01482339
0.024526764 0.0037437598 -0.030495543 0.029574309 -0.05995305 -0.03704416 -0.015645612 -0.030444581
-0.021864582 -0.051226348 -0.013294695 0.013359776 -0.040716603 -0.0032074596 0.04474067 -0.0064250147
0.0017370132 -0.0053918054 0.012648834 0.03973996 0.05920288 0.039690986 0.05933834 -0.0045201024
-0.056145087 -0.029629823 0.04255657 -0.00040515506 -0.031065393 -0.047894478 -0.058490746 -0.052750506
-0.012677295 0.034275368 0.03379006 -0.060276985 0.03898637 -0.048906833 -0.013213141 -0.025342036
-0.012038453 -0.012271417 -0.056084365 -0.05396486 -0.0097799655 0.0008082612 -0.028392177 0.023543697
-0.05625364 -0.0042179516 0.054963708 -0.025493246 0.056437686 0.022634607 -0.0564038 0.039543577
-0.0072121536 -0.027900424 0.049978323 -0.050505944 0.0067065572 -0.013085542 0.044632033 0.01744653
0.03003158 0.02207243 -0.015029667 -0.013144089 -0.05150508 0.03386525 0.049623623 0.042764045
-0.044086136 0.0027874927 -0.044058375 -0.034405254 -0.036419086 0.02135906 -0.037244566 -0.0013635752
0.0026292573 0.040288933 -0.047244996 -0.042907007 -0.03629134 0.04374583 -0.022466559 0.052718036
0.022600468 0.007914124 -0.00046525145 -0.012355095 0.007841645 -0.014271541 -0.00043915206 0.007974563
-0.04888781 -0.032758206 0.05046829 -0.05072166 -0.004487886 0.061827414 0.022577312 0.0017695648
-0.054163113 0.030961115 -0.04451754 -0.017741513 -0.020969767 -0.0092554595 0.0006836428 0.051550463
0.007802426 0.055980794 0.03823202 -0.039513364 0.028031502 -0.044180997 -0.026489068 0.018382665
0.020637002 0.046889246 -0.020119738 0.00010005383 0.032176465 -0.060443252 0.04518628 -0.051682644
0.0008614062 -0.010626046 -0.032917053 0.008260688 0.051682413 -0.018269967 -0.037105873 -0.023114923

convs.0.apply_func.0.bias f4 [32]
00000000: 1e91 08bb a9d9 b23c 8a76 b53c 6567 09bd
00000010: a6d8 9ebc 06ed 27bd d30b e73c fb29 583d
00000020: eef8 12bd 52b0 ab3c 10a3 45bd 46b3 4b3c
00000030: e115 84bd f21a c9bc 7e9d 3bba f2f8 8f3a
00000040: 867b 463d ce29 ccbc feb4 a93c 0ae0 e03c
00000050: f2ee 8b3c d828 88bd b77d 44bd be2e 7bbc
00000060: fefa 88ba 6dc7 f43c b019 fb3c 165a 533c
00000070: dd82 f1bc be2b 8bbd f62d 7d3d bcc1 56bc
-0.002083845 0.021832304 0.02215125 -0.03354587 -0.019390415 -0.040997528 0.02820388 0.05277441
-0.03588193 0.0209581 -0.04825121 0.012432879 -0.064494856 -0.024548981 -0.0007156952 0.0010984226
0.048457645 -0.024922278 0.020716187 0.02745058 0.017081711 -0.06648415 -0.047971454 -0.015330968
-0.0010450778 0.02988025 0.030651897 0.012899896 -0.029481346 -0.067954525 0.06181141 -0.013107713

convs.0.apply_func.2.weight f4 [32, 32]
00000000: fcde 20be f21a 12bd 7fab a93d 598b 023c
00000010: 2e9d ee3d 592d c7bc a6d0 193d 880c 3a3e
00000020: 1c14 13be c006 903c 4741 0dbe 6094 d3bd
00000030: 7468 23be d4c1 b13d 4077 26bd 4759 a23d
00000040: 48b2 d43c f04b 823d 8e65 0abe e863 80bd
00000050: 9ce1 05bd 2ac3 fabd 3571 b53d 14f5 ed3d
00000060: baf1 82bd 8e3f ebbd e11a a1bd c415 1bbe
00000070: 011f ccbd 2674 47bd dd4f 1f3d 6866 92bd
00000080: 8a46 14be e186 9b3d 1bb3 103e 634d 093c
00000090: 7ff5 cdbc 6524 a0bd 281d 6c3d 803f 673c
000000a0: 8c88 a5bd bd63 f83d 0c46 d53d 92b9 053e
000000b0: 89c1 f93d b5d3 d6bd 00bb 253e 118b 213c
000000c0: 9386 26be 5a7d e53d dbd9 e8bd 6108 aabd
000000d0: 50b6 ac3c 537f 003e 420f e83c 14c7 1abe
000000e0: 2c83 f6bd 5e47 863d 1e35 7dbd e5be 453d
000000f0: f9d6 1d3e adee ebbd 9a51 1cbe b1db 72bd
00000100: 7754 60bc 0180 3abd 9abf 363e d546 ccbd
00000110: b7bb d13d a48e 983d f765 203e 2da1 1ebe
00000120: 3c34 043e 72ac 66bd aec8 66bd f31b ad3c
00000130: f944 e93d 6ab6 b93d 2f00 d2bd 1f36 6e3d
00000140: 5ee7 a4ba c255 833d cb90 07b9 319f 33bd
00000150: 8833 c83d 679a 203e 70bf c03d 0f9f 2fbd
00000160: c91a 1e3b 4d35 223d de17 b7bd 8788 193e
00000170: 2bcd dd3d 0ae3 9c3d 84be 2d3e 4449 22bc
00000180: 3f9c 083e 0017 72bc a74a 0f3e 988c cdbd
00000190: 5b06 31be 5ed4 d73d 4855 793d baa2 25be
000001a0: 213d 9d3d cbb5 1abd 3b86 9f3d 3bbf 343e
000001b0: 8f03 0c3e 4fba cf3b d34d b23d fd02 19be
000001c0: 23c5 9b3c 7363 813d 1072 d43d 2aba 823d
000001d0: 7acb 083e 48c6 953c e5fd 343d 6fb2 22be
000001e0: 8093 adbd 6280 b13d 927f 983d 44ec b53d
000001f0: 4177 9e3d bedb 12be 65f7 833d 511a 22bd
00000200: a17c eabc affb 8cb9 9da6 123e cb39 283e
00000210: e19a b33d 1d49 99bd 19ba 563d f6b9 883d
00000220: 8ea7 0a3e 2d41 643c c49d 2abe 1145 853d
00000230: 5f18 10be 4908 bc3c 3b7a ec3d 6c47 893d
00000240: 9c37 253e 3485 2e3e 6490 25be 1ba5 8e3b
00000250: f7a8 383d 9b81 27bd 70bf babd 2f3e 283e
00000260: 0148 d9bd 4d86 2dbe 9b62 25be 8d23 c5bd
00000270: 3e0f c93c 6a58 f43d 291e a6bb 8227 0ebe
00000280: 5d48 063e d02b 56bc 3eaa 82bd 772f abbb
00000290: f78e 9d3d 0900 b5bc f663 663d 37fb 773d
000002a0: 8794 eebd 45c6 223e ece8 ef3d 81d5 09bc
000002b0: 3a41 e93d 63f3 47bd 5ac1 1abd 8dd2 773d
000002c0: 1f47 06be 0a4c 2fbd 70e3 f0bd ec62 78bc
000002d0: 1fff 8ebd 8dbd 38bd 16f5 54bd d64e fb3d
000002e0: 2318 323d 0bd5 2ebe 21ae fabd 8c37 debc
000002f0: 6642 6f3d da4d e13d 8b2b 333e 033d f4bd
00000300: ac0b 2b3e 8c41 073e b00a 10be c9eb 14be
00000310: 104e 0dbe ac65 613b c7fd 1cbd 9330 23be
00000320: 0da7 4dbd 49c8 e23d e2f6 4ebc e7c7 02be
00000330: 44d7 edbd 1229 873d 6e97 623d 74c7 81bd
00000340: cd3a 14be 87c6 993d 955c c1bd 2490 1ebe
00000350: 2eaa 333e 4b8f 913d 72ae f5bc 88fe 203d
00000360: 9807 133e 98de 20be 91ac b2bc 88af 49bd
00000370: fad5 2fbe 2884 193e dd1a 2bbe 029d 6cbd
00000380: a4cb b73d 9525 163e c63c 3fbd 9ff0 153e
00000390: c29a 6cbb 704a 27be 59bb 28be b193 c3bd
000003a0: a373 8dba 8cd1 123e 03a5 9abd 3c71 e0bc
000003b0: a77f f73d 9482 32bd 2ada 9c3d 7703 d6ba
000003c0: 8917 8dbd be91 eabd 5801 243e 7174 c2bd
000003d0: 0a31 953c 6473 7b3d 0151 063d e16d e2bc
000003e0: 72f1 0bbd 3660 98bd 6883 433d 4127 53bd
000003f0: 06f0 863d 3379 ba3d 26b3 9b3d 0e65 aabd
-0.15710062 -0.03567023 0.082846634 0.007967793 0.116510734 -0.024313616 0.0375525 0.18168843
-0.1436314 0.017581344 -0.13794433 -0.10331035 -0.15957814 0.08679548 -0.04064107 0.079271846
0.025963917 0.0636214 -0.13515303 -0.062690556 -0.03268586 -0.12244256 0.08859483 0.116190106
-0.06393762 -0.114867315 -0.07866455 -0.15145022 -0.09966851 -0.048694752 0.038894523 -0.07148439
-0.14480034 0.075940855 0.14130823 0.008380267 -0.025141476 -0.07819442 0.057644993 0.014114261
-0.08082685 0.121283986 0.10413751 0.1305907 0.12195117 -0.10489599 0.16184616 0.009859816
-0.16262273 0.112055495 -0.11369678 -0.083023794 0.021083027 0.1254857 0.028327588 -0.15115005
-0.12036738 0.06556581 -0.061818235 0.048277754 0.15414037 -0.11520133 -0.15265504 -0.059291545
-0.013692013 -0.04553223 0.17846528 -0.09974448 0.10240882 0.074490815 0.15663897 -0.15491171
0.12910551 -0.0563168 -0.056343727 0.021131491 0.113901086 0.09067996 -0.10253941 0.058157083
-0.001258116 0.064128414 -0.00012928543 -0.04385299 0.09775454 0.156839 0.09411514 -0.0428763
0.0024124852 0.039601613 -0.08940099 0.14993487 0.10830148 0.07660492 0.16967207 -0.009905163
0.13340853 -0.014775991 0.13993321 -0.10036582 -0.1728758 0.10538553 0.060872346 -0.16175357
0.07677675 -0.037771028 0.07789274 0.17651074 0.13673232 0.0063393484 0.0870625 -0.14942546
0.0190149 0.063177966 0.10373318 0.06383164 0.1335887 0.018283024 0.044187445 -0.1588838
-0.08475399 0.08667065 0.07446207 0.08882955 0.0773759 -0.14341637 0.06443671 -0.03957588
-0.02862388 -0.000268904 0.1432137 0.16428296 0.08769775 -0.074846484 0.05242357 0.06676094
0.1354048 0.013931555 -0.16661745 0.06507314 -0.14071797 0.02295317 0.11546751 0.06703076
0.16134495 0.17043 -0.16168362 0.004353178 0.045083012 -0.040895086 -0.09118545 0.16429971
-0.10609437 -0.16945763 -0.16150896 -0.096259214 0.0245434 0.11930926 -0.0050695133 -0.13882259
0.13113542 -0.013071969 -0.06380127 -0.005224164 0.07693284 -0.022094743 0.056247674 0.06054231
-0.11649423 0.15895946 0.11714348 -0.00841272 0.11389394 -0.048816096 -0.03778205 0.06050353
-0.13113068 -0.042797126 -0.1176213 -0.015160304 -0.06982254 -0.045102645 -0.051991545 0.12270896
0.04348005 -0.17073457 -0.12240244 -0.027126096 0.05841293 0.11001177 0.17497079 -0.119256996
0.16703671 0.13208598 -0.14066577 -0.1454307 -0.1379931 0.0034392877 -0.03832796 -0.15936498
-0.05020814 0.110733576 -0.012632104 -0.12771569 -0.11613324 0.065996304 0.055320196 -0.06336871
-0.14475556 0.07508569 -0.09441487 -0.15484673 0.17545387 0.07107409 -0.029990409 0.03930524
0.14358366 -0.15709913 -0.021810802 -0.049239665 -0.1717147 0.1499182 -0.16709466 -0.05776692
0.08974388 0.14662774 -0.046688817 0.14642571 -0.0036102985 -0.1633699 -0.16477717 -0.09549654
-0.0010791909 0.14337748 -0.07551005 -0.027397744 0.120848946 -0.04358156 0.07658799 -0.0016327937
-0.068892546 -0.11453579 0.16016138 -0.09494866 0.01821186 0.061389342 0.032792095 -0.027640285
-0.034165807 -0.07440226 0.04773274 -0.051551107 0.065887496 0.09105148 0.07602529 -0.08320056

convs.0.apply_func.2.bias f4 [32]
00000000: 39e8 bc3d 2f26 16be a6bf be3d 3b27 063e
00000010: 7dce 19be c75c e3bd a791 f73d 2ddb bf3d
00000020: 447d 10be 8e9e 473d 5ba0 da3d 09a6 123d
00000030: 076e dc3d 79bf 803d 7006 503d 6709 d33d
00000040: feae 76bd 94b6 7d3a f651 2fbd 244b 03bd
00000050: 0be6 7e3d cb3b 8cbd 8b54 843b 2a40 203e
00000060: c9db 6d3d b566 313e c6f3 a83b 68f4 4abd
00000070: 9736 1f3e 0460 d7bd dd44 c43d fa12 193e
0.092239805 -0.14663003 0.09313898 0.13100903 -0.15020175 -0.1110168 0.12088328 0.09367976
-0.14110285 0.048735194 0.10675117 0.035802875 0.107631736 0.062865205 0.05078739 0.10304528
-0.06022548 0.00096783903 -0.042802773 -0.03205408 0.062231105 -0.06847342 0.0040383986 0.15649477
0.05807093 0.17324336 0.005156013 -0.04954949 0.15548168 -0.105163604 0.09583447 0.14948645

convs.1.apply_func.0.weight f4 [32, 32]
00000000: 3fde d8bd 939b 48bd b76e 233e 9065 08bc
00000010: 06cd 1ebe e5c3 c8bd ec6f 2abe 9ae4 0cbd
00000020: b841 c83d 9d72 c1bc 15db 3dbd efaa 6c3c
00000030: 8041 e2bc eaa0 00bd 0468 65bd 469e 0a3c
00000040: c50c 30bc 31a0 cfbc a03e 37bd fda2 3c3d
00000050: 770d 8abd 18d1 c0bc 33ad ddbc 96ad e33d
00000060: e1c2 973d 62b0 783d 7e0e 8eba 6760 e5bd
00000070: dbe4 413c a74a 14be 6933 7d3b fba1 313e
00000080: 0133 d0bc 1d3a 1f3e d0d1 fcbd 988d 003e
00000090: 02ee 873d 80b9 9dbd 14a9 32be c936 bebd
000000a0: 2970 aa3d 6b20 213e 7997 11be db2a bebd
000000b0: c7ca 803d 1bfd 6abd 9a4a 1abe 6a96 73bd
000000c0: 4cf9 2f3d 76c6 3dbe ca84 86bd d151 b93d
000000d0: 5a26 913d a2c0 9abd dfc4 1a3e fae9 e83c
000000e0: dbd9 913d 0543 eabc 6c8f 89bd d17b 0c3e
000000f0: 8f55 29be 7717 8b3d f7ed 9ebd 37dd 8dbd
00000100: fe16 043e cdab 32be ea9d 21bd 1cca 75bd
00000110: a494 e93d 54d1 16be aff0 0dbd 8170 90bd
00000120: ff6e ed3d 5c09 fc3d c710 1fbc c02b 853d
00000130: 1f1d 253e 3cc3 2bbe 48d7 2cbb 69eb 143e
00000140: d7ac 7cbd 4307 06be 6ba4 123e 49d2 1d3e
00000150: e4d0 b43d 4a94 ef3d e563 78bc dcfe 0dbe
00000160: 11c3 2dbe 7c24 763d 2533 63bd 1bc4 203e
00000170: e107 853b 7d60 e13d 14a7 00bb 4e1b 5dbd
00000180: 9137 8bbd 4b3d 28be 73aa 3dbe 82f5 4abd
00000190: 7b3a 1dbe f1e1 34be a175 b43d 3630 9fbd
000001a0: 7620 5139 73ba 39bd ca4c 08be 7b40 5dbd
000001b0: e97f e8bd 0688 023d 2408 2a3e d10b 2cbd
000001c0: f667 ce3c e544 b33d 8b2f 9e3d 2d7b e53a
000001d0: a38b 97bd ccb5 0dbd c857 1abd fdb8 343e
000001e0: ed77 cc3c fff7 ec3d 866c ce3d d70b 0f3e
000001f0: 49e6 f93c ab79 863c 266b 51bd 5863 e73d
00000200: eac5 003e 69ff fd3d 2b66 2ebe 1cb2 51ba
00000210: b14f e9bd 4d87 eebd 3cfe 1dbe 219a a5bd
00000220: 73b8 1b3e 3b5d aa3d 9f3d fabd 19aa 4cbd
00000230: 4ac0 9e3d 6f0a b93d 3deb e53d 676d bebd
00000240: eb19 92bd c190 a83d f414 cf3c 63be babd
00000250: 90c7 16be 25f8 84bc 9723 0c3e 078a 9bbd
00000260: 3152 1bbd 91f0 883d 6029 1dbe 79d8 adbd
00000270: 409a 9c3c 3a70 b1bd d890 0d3e 0c40 1dbd
00000280: 7b40 8d3d baf8 05bd f824 a7bc b150 2b3e
00000290: 3e21 10be aae5 fbbd 1695 86bd 3af0 a53c
000002a0: a689 54bd 5c8f 633d f407 a7bd 2e53 863d
000002b0: d2d5 28be d347 dabb 76fd bf3d 51c3 fb3c
000002c0: 03bc babd da02 87bd b8ac 1d3d 72d7 f9bd
000002d0: 9093 0cbe 4bf7 15bb 2c77 1abe 9190 3a3d
000002e0: 673d efbd 0c02 c83d 2630 d33d 447f 043e
000002f0: e759 e6bd 28ab 163b 4601 283e 30b6 6bbd
00000300: 9719 6a3d 015e c43d cabb 1d39 84fc 7dbd
00000310: 5cb0 243d 4a98 453d cf03 0cbe a711 84bd
00000320: 7a85 1ebe 9620 1fbe 0d33 053e 6a51 f23d
00000330: dd73 01be 4614 35be f119 19be b69f 9f3d
00000340: 04b9 103e ddf0 d8bc 687e 79bd 25bb 11be
00000350: 217f d4bb f1a5 bc3d caa1 ae3d 3f3c a0bd
00000360: 1967 93bd f580 013d f548 a33d b51c 0e3e
00000370: 79cb 003d bfcc d53d 1f94 133e 8ad2 81bb
00000380: 5520 22bd 302c bd3d 7e12 8d3b 4b91 1f3e
00000390: fedf c33d 1d74 243d 0a8c 26be ce85 de3d
000003a0: 0039 7dbd f787 01bd bd62 bd3d ca4c 483d
000003b0: 5003 45bd aae0 22bc e81c f9bd ce40 79bd
000003c0: c309 febc 8fce 48bc 9268 36bd 3c35 c83d
000003d0: 1791 16bc 8a07 e3bd 77fb 0f3d c997 6ebd
000003e0: 94fe 0e3e 452c a5bb 40bf 1c3e ebf5 223e
000003f0: a784 323e 9265 c53c 0da8 093e cee9 0abb
-0.10589265 -0.048976492 0.15960203 -0.008324996 -0.15507898 -0.09802989 -0.16644257 -0.0343977
0.0977816 -0.023614222 -0.04635151 0.014445051 -0.027619123 -0.03140346 -0.0560074 0.008460587
-0.010745232 -0.02534494 -0.04473746 0.046053875 -0.067408495 -0.023537204 -0.027060127 0.11117093
0.07410217 0.060715087 -0.0010838059 -0.11200028 0.011834349 -0.14481603 0.003863538 0.17346947
-0.025414946 0.15549512 -0.12344706 0.12554014 0.06637193 -0.07701397 -0.1744731 -0.09287793
0.08322174 0.15735023 -0.14217938 -0.09285518 0.06288677 -0.057370286 -0.1506752 -0.059469618
0.042962357 -0.18532738 -0.06568296 0.09048808 0.07087393 -0.07556273 0.15114163 0.028431881
0.07121631 -0.02859641 -0.06716809 0.13719107 -0.16536544 0.06791585 -0.07760232 -0.06926959
0.12899396 -0.1744835 -0.03945724 -0.0600072 0.11405304 -0.1472829 -0.034653362 -0.070527084
0.115934364 0.12306473 -0.00970859 0.06502485 0.1612439 -0.16773695 -0.0026373435 0.14542927
-0.06168827 -0.13088708 0.14320533 0.15412249 0.08828905 0.11698206 -0.015160535 -0.13866752
-0.16968943 0.060093388 -0.055468697 0.15699808 0.004059777 0.11004732 -0.0019630836 -0.053981118
-0.06797708 -0.16429631 -0.18522052 -0.04955054 -0.1535434 -0.17664315 0.088114984 -0.077728674
0.00019943886 -0.045343827 -0.13310543 -0.05401657 -0.11352522 0.031868003 0.16604668 -0.042003457
0.025196057 0.08753375 0.07723912 0.0017508023 -0.073996805 -0.034597203 -0.03768137 0.17648692
0.024959529 0.11570739 0.10079293 0.1396936 0.030505316 0.016415438 -0.051127575 0.11298245
0.12575498 0.12402231 -0.17031161 -0.00079992577 -0.11392153 -0.116469 -0.15429014 -0.080860384
0.1520708 0.083185636 -0.122187845 -0.049966905 0.0775152 0.09035193 0.11226509 -0.092982106
-0.0713385 0.082307346 0.025278546 -0.09118345 -0.14724565 -0.016231606 0.13685451 -0.07594686
-0.03792018 0.066865094 -0.15347815 -0.084885545 0.01911652 -0.08663984 0.13824785 -0.038391158
0.06897064 -0.032707907 -0.02040337 0.1673 -0.14075181 -0.12299664 -0.06571405 0.02025615
-0.051889084 0.05555664 -0.08155814 0.06558834 -0.16487816 -0.006661394 0.09374516 0.030732783
-0.09117892 -0.06592341 0.038494796 -0.12199296 -0.13728166 -0.0022882994 -0.15084523 0.045548026
-0.116816334 0.097660154 0.10311918 0.12939173 -0.11247616 0.00229902 0.16406736 -0.057546794
0.05715331 0.09588242 0.00015042644 -0.062008396 0.040207252 0.048240937 -0.13673328 -0.064486794
-0.15480605 -0.15539774 0.13007756 0.11831935 -0.12641855 -0.17683515 -0.14951302 0.07794134
0.14133078 -0.02648204 -0.060911566 -0.14231546 -0.0064848815 0.09211338 0.085269526 -0.07823991
-0.07197399 0.031617124 0.079729 0.13878138 0.031444047 0.10439443 0.14411972 -0.003961866
-0.039581615 0.09236944 0.004305183 0.15582769 0.095642075 0.040149797 -0.16264358 0.10865365
-0.061821938 -0.031623807 0.092473485 0.048901357 -0.048098862 -0.009941259 -0.121637166 -0.06085282
-0.031010514 -0.012256279 -0.04453332 0.09775779 -0.009189866 -0.11085422 0.035151925 -0.058250222
0.13964301 -0.0050406777 0.15307331 0.15914123 0.17433415 0.024096284 0.13443013 -0.0021196487

convs.1.apply_func.0.bias f4 [32]
00000000: 6c41 d2bd 323f 0d3e ba83 843d 3281 743d
00000010: 70ed 153e 8e25 853d cf6f 2cbe c835 ab3d
00000020: c896 2f3e 2f78 a2bd 0d6f 143e 3586 123e
00000030: 29a1 2abd 4bee 8139 30a4 bbbc b97c 103e
00000040: 2da4 b63d 783a 003e 9ef9 21be 19aa 86bd
00000050: 2abf 08be 8173 1e3d f053 8dbd db80 393d
00000060: ee85 bc3d 0a38 ffbc d1a1 f43b 0a6e 05be
00000070: 7eff a6bc 9fc5 313d 1ffe e63d 2e4a 923d
-0.102663845 0.13793638 0.06470437 0.059693523 0.14641356 0.065013036 -0.16839527 0.08359867
0.17147362 -0.079330795 0.14495488 0.14309008 -0.0416576 0.0002478234 -0.02290544 0.14110078
0.08918033 0.12522304 -0.15817878 -0.06575412 -0.13354173 0.03868437 -0.069007754 0.0452889
0.092052326 -0.031154651 0.007465579 -0.13030258 -0.0203855 0.043401357 0.112789385 0.07143055

convs.1.apply_func.2.weight f4 [32, 32]
00000000: 04d0 093d 58ea c13d be7b fb3d da7d 2e3c
00000010: 280b 3c3e 0be5 e8bd dfd9 5c3d 2be1 6ebc
00000020: 75a1 f03d 77bc 2cbe 9171 bb3d cef5 2bbe
00000030: 2c13 44bd 6d26 51bd ab5a 72bd 5e3b a7bd
00000040: 7195 13be e576 1ebe f215 2cbd cbbd 0d3e
00000050: 107f 0bbd 1a41 d9bd 81b8 4ebd d85a 1bbe
00000060: 66f1 763b bc1d 253e 25c1 30be 42f2 a73d
00000070: 801a 003e 2ccc 123e 19c2 d6bd db61 a93c
00000080: 7710 cc3d f61f 1bbe 3425 113e 998e 54bc
00000090: 9654 1fbe a7bd 39bd 2253 a63b 1c92 93bd
000000a0: bcfe 92bd b6e9 94bc a207 793d 2851 b03d
000000b0: efdf 2abe 30d1 39bc 081a 333d 9513 123e
000000c0: f567 b53d 8456 f63d 61be 863d f273 8dbc
000000d0: 8216 c8bd 3216 76bd 6b20 6a3d 9b8f 17bd
000000e0: 4fa7 263e 1103 e3bd 712c f63d 96d9 e73d
000000f0: 2d3c 053e 15ef 0d3e 4548 d1bd e03c d13d
00000100: b73a 33be fe49 c2bd b017 b5bc 5126 263e
00000110: ebde 11bd b221 11be 8289 21be 95d4 583b
00000120: 69df 9c3c 8d23 303d c7c6 4abd 3a1f 613d
00000130: 0310 4e3c 6a2a 3ebd 6e6b b93d aba0 02be
00000140: 7640 afbd 3b65 4b3d 2ddb 4ebd 6f0f 8cbb
00000150: 0fb4 81bd 3b9e da3d bd7c 2a3e 7a07 1b3e
00000160: 94d8 3b3d 2e78 e5bd 93c1 64bd a9cb a4bd
00000170: 48b4 0bbd 8772 b4bd 03c4 d73d c9b9 2bbe
00000180: 6dd6 fc3b 5f3c ea3d 2e93 0fbe be4b 90bc
00000190: 5120 ab3d e7f7 7cbd c96c abbd 9f77 a53d
000001a0: 8a4e dfbd 514f 423e 2260 223e 542f 853c
000001b0: 7caa e93c fe66 b8bd beb5 283d 0bc3 08be
000001c0: 1ffb 05bd 5c9f 0a3e 2f00 853d eb29 033e
000001d0: eae8 ee3d aa95 3a3e cef7 6d3d cdab 04be
000001e0: 7dd9 23be b18e e03d 5d08 133e fc21 2c3e
000001f0: 2ba1 dabd 3861 253e 964d 4bbd 60f7 3c3d
00000200: 3085 033e 48b0 0bbe 2f47 29be ce9e 083e
00000210: f136 22be 90a1 bb3d 3878 d13d 476d 043e
00000220: 4cc1 8b3b e074 f4bc 569e ed3c f65c 9bbc
00000230: 3099 2abe b3d2 2a3d b3d6 efbd 96fc 053e
00000240: 069f 8ebd f093 25bd 3dde f8bd 9895 223e
00000250: b898 f23d 7441 233e 3fa2 ee3d 96f9 d2bd
00000260: 0077 1d3e b19a ebbc d574 203e 13f3 263d
00000270: 494e 003e 6880 98bd bb38 8e3d 6168 8bba
00000280: 1d79 10be 0014 fd3d 5147 d1bd 3eb5 e3bd
00000290: f806 0c3e 7913 26be 730f 7a3d c135 133e
000002a0: 1cb6 0bbd ac3c 2bbe f09c 0cbe 70d9 70bc
000002b0: 04d2 e5bc fe68 fb3d 4cd9 203e c0b3 d3bd
000002c0: 6cb9 57bd b957 14be ee91 393d c8bc 0a3e
000002d0: 1f30 5fbd 4b82 1d3c 5df7 60bc 7ae6 16be
000002e0: b5cd 403e 7abd 5b3d 41b7 233e 5162 1dbe
000002f0: 04a4 53bd 668d 26bd 8346 6e3d e664 37bd
00000300: 2847 d0bd df3e 143e c62f ff3d b303 343e
00000310: 5c06 f53d fb28 ee3d c046 05be 783f 583c
00000320: 696b 7bbd ac74 81bc c9b1 a63c a58c e63c
00000330: 2833 e2bd f85a ebbc f824 a7bd 1353 3abd
00000340: 3e50 f5bd bd4f c9bd 4025 0cbe e42f febd
00000350: cdc9 3ebc 86fe 1fbe f345 3abe a6fa fd3d
00000360: 9171 08be 0076 fd3d cbfe cd3b c455 02bd
00000370: 9595 fa3d 4e58 0dbe 4167 b33d 39a4 f13d
00000380: af64 103e 3e07 29be 43e5 c53c 66f8 b7bc
00000390: af4f 06be 5a43 f73d 8a93 91bc b0de f43d
000003a0: 61f1 c2bd 5490 a0bd 321f 883d d4c3 1d3d
000003b0: d7e5 ef3d ab71 9a3d 9ce6 103e c76f 05be
000003c0: 569c 233d fe20 143e 4c0d a4bd a838 e2bd
000003d0: 351e 323e 787f 11be 2d98 ebbd d529 19be
000003e0: f129 333d 379e 2f3d efe2 1ebe d47f d13d
000003f0: 5696 4f3d 3547 753d 0c31 31be d185 25be
0.033645645 0.09468526 0.12279461 0.010650123 0.18363631 -0.113718115 0.053918716 -0.014580051
0.117495455 -0.16868769 0.091525204 -0.16792986 -0.047869846 -0.051062036 -0.0591685 -0.0816562
-0.14412476 -0.15475042 -0.042013116 0.13841932 -0.034056723 -0.1060812 -0.050468925 -0.15171373
0.0037680506 0.16124624 -0.17261179 0.08200504 0.12510109 0.14335698 -0.1048624 0.020676544
0.09964078 -0.15148911 0.14174348 -0.012973451 -0.1555961 -0.045346882 0.005075828 -0.072056025
-0.07177493 -0.018177848 0.060798295 0.08609229 -0.16686986 -0.011341378 0.043725997 0.14265282
0.08857719 0.1202822 0.06579281 -0.017267201 -0.09769918 -0.06007976 0.057159822 -0.037002187
0.1627476 -0.11084569 0.12020195 0.11320798 0.13011236 0.13860734 -0.102188624 0.10216689
-0.17502867 -0.09486769 -0.022106022 0.16225554 -0.03561298 -0.1417301 -0.15775111 0.0033085693
0.019149499 0.043002654 -0.049505975 0.05496142 0.01257706 -0.046427168 0.09053694 -0.12756602
-0.08557217 0.049657088 -0.05050199 -0.0042743008 -0.063331716 0.10674711 0.16649146 0.15139571
0.045860842 -0.11204563 -0.05584867 -0.080466576 -0.034107476 -0.08810907 0.10535433 -0.1677009
0.007715991 0.11437296 -0.14020988 -0.017614242 0.08355773 -0.061759856 -0.083703585 0.080794565
-0.10903652 0.1897557 0.15856984 0.01625792 0.028523676 -0.09004019 0.041188948 -0.13355653
-0.03271019 0.13537353 0.06494176 0.12808959 0.116655186 0.18221155 0.058097653 -0.12956162
-0.16000934 0.10964716 0.14358659 0.16809839 -0.106752716 0.16150367 -0.04963454 0.046134353
0.12843776 -0.13641465 -0.1653106 0.13341829 -0.15841271 0.09161675 0.10228008 0.12932311
0.004264986 -0.029840887 0.029006165 -0.018965226 -0.16659999 0.041704845 -0.117108725 0.13084635
-0.06963925 -0.040424287 -0.121517636 0.15877378 0.11845535 0.15942937 0.1165204 -0.10301511
0.15377426 -0.028760286 0.15669568 0.040759157 0.12529863 -0.074463665 0.06944414 -0.0010635966
-0.14108701 0.1235733 -0.10218681 -0.111185536 0.13674533 -0.16218366 0.06104989 0.14375974
-0.03410922 -0.16722363 -0.13731742 -0.014700279 -0.028054245 0.12275885 0.15707892 -0.10337019
-0.052667066 -0.14486589 0.045305185 0.13548577 -0.05448925 0.009613584 -0.013730851 -0.14736357
0.18828471 0.053647496 0.15987875 -0.15369536 -0.05167009 -0.04066219 0.058172714 -0.04477396
-0.10169822 0.14477108 0.12460284 0.17579536 0.119641036 0.1162891 -0.1301527 0.013198726
-0.06138173 -0.015802704 0.020348446 0.028143236 -0.110449135 -0.0287299 -0.08161348 -0.045489382
-0.119781956 -0.09829662 -0.13686085 -0.12411478 -0.011644793 -0.15624437 -0.18190746 0.12401323
-0.13324572 0.12376022 0.006286477 -0.031820074 0.12235562 -0.13803217 0.087599285 0.11798901
0.14100908 -0.16506669 0.024157172 -0.022457313 -0.13116334 0.12073393 -0.017770547 0.11956537
-0.095186956 -0.078400284 0.06646575 0.038516834 0.1171376 0.07541212 0.1415047 -0.13030921
0.039944015 0.1446571 -0.08010349 -0.110459626 0.17394336 -0.14208782 -0.115036346 -0.14957364
0.04374117 0.042875495 -0.15516256 0.102294594 0.05068048 0.05988236 -0.17303866 -0.16164328

convs.1.apply_func.2.bias f4 [32]
00000000: 115b fb3d 4500 123e 155c 95bb 4667 1dbe
00000010: eb78 583c 5ed8 e0bd 30f9 773d 8674 253e
00000020: 53f1 433e 634d 1b3e fe40 263d 81c6 313e
00000030: c502 0cbd 907e 233c 2456 ddbd e1ea b43d
00000040: 0913 ab3d 79a5 923d 3155 023e 2791 1c3e
00000050: d50a 2bbe 612e 4dbd 9cb4 10be 8d90 093e
00000060: a306 003c d7f3 20be af07 b93d 3de9 ddbd
00000070: aaa0 56bb 84e5 e03d 605e c93d d1ff e03d
0.12273229 0.14257915 -0.004558096 -0.15371427 0.013212423 -0.10978769 0.060540378 0.16157731
0.19135027 0.1516624 0.040589325 0.1736088 -0.03418233 0.009978905 -0.10807446 0.08833862
0.0835324 0.07160468 0.1272781 0.15289746 -0.16703351 -0.05009306 -0.14131397 0.13434048
0.007814082 -0.15718018 0.09034669 -0.10835502 -0.0032749572 0.10981277 0.09832454 0.10986293

convs.2.apply_func.0.weight f4 [32, 32]
00000000: 05eb 15bc 5886 fabc e750 b0bc 6c12 40be
00000010: ba06 9cbd 4a28 f83d 89e6 9d3d 1e4b 33be
00000020: d7cc fb3c a9a1 183e 429e 1dbe ff87 febc
00000030: fcef ddbd 2737 93bc b742 b9bd 66e2 103e
00000040: 309d a03d 7c02 43bd 7173 2abe a701 dcbd
00000050: 6331 03bd 4e2a 0c3d bc44 b2bd 871a f9bd
00000060: 569b 0fbd 3db3 1dbe b030 213d d840 30be
00000070: 5ae5 31bd a391 13be 5638 a9bd 285d 3bbc
00000080: f664 afbd 5945 edbd ad13 d43c 4171 9cbd
00000090: ed22 783c 71ed 503d 5a48 99bc 7a1b 18be
000000a0: 7b5a 4ebd 52b6 92bc fb15 563d 26de 01be
000000b0: 1af6 033e a8a2 f33c 1c7b 113d f339 293c
000000c0: ee37 eebc fd28 8f3d bd5b 0e3e 7645 f6bc
000000d0: 71b9 9a3d f1e4 d23d 5b83 943d f533 5c3a
000000e0: 64c2 393d 96b8 bd3c 3290 e43d 599e 14bd
000000f0: 6dbf c93c b024 ed3c cc36 2cbe 46c3 373d
00000100: 9f62 03be 6758 943d 829e 28bd b902 003d
00000110: 0e7f 0dbe 58c1 873d 5cc2 c83d e11b 6a3d
00000120: b666 543d fa7c ecbd 99c3 123e 86a2 083d
00000130: 0ea6 30be aabf 67bb 72af 22bc 5bbc 773d
00000140: 3470 063d d659 fd3d c9ff 0abd 9553 35bd
00000150: e8f0 bebc 6841 ba3d 2782 2ebe 4572 ff3d
00000160: 1df9 89bd 69b1 a63d ee98 f3bd 1494 a1bd
00000170: e7bf e0bb 0eea 0abd 8769 03be fd03 31be
00000180: 1491 16be d880 243e 0e6f bb3d 4c70 6abd
00000190: b5bc de3d bdf3 c3bc ae3f 23bc d019 e8bd
000001a0: f19c debd 48fe 063e 93d0 2e3e 4272 39be
000001b0: 2886 833c 301e 593d 7ce6 d1bd da84 a0bd
000001c0: 5cd3 06be bba4 2c3d 7a21 273e e19b 683d
000001d0: 2b9e 0dbd 4eba 2a3d f686 f7bd 1571 babd
000001e0: 57eb 8c3d 42af 163e 9697 abbb 0f4c 6dbd
000001f0: abb3 8a3c 9f98 34be 13ff da3d 8e3b ddbd
00000200: 78af 73bd bb00 1cbe 84c6 183d 3f70 a9bd
00000210: e934 533c ba89 dcbd e88c ae3d 40a8 09be
00000220: a570 16be 7ca5 2abe 4e75 173e 374e 9e3d
00000230: bcf8 04be e78f 32bd 106e f63d 9aef 5d3d
00000240: df54 2a3e 4281 03bd 7b98 bcbc f4d6 003e
00000250: c601 59bc 5726 1abe 511a 3dbd 9a20 063e
00000260: eb02 963d 0aa9 2bbd 5a4a 31be eac0 fd3d
00000270: b439 1dbd 220a 18bd c46f 243e 2d4a c53d
00000280: 5bea 5f3d 4e3a 3e3d 0185 593b 9d1a 2237
00000290: e421 d8bd 9f5b 803d 0474 973d fa0b c43d
000002a0: 3a4e b7bd 42f4 4dbb 409c c9bc 2d62 eebd
000002b0: 8a00 1d3d bc3c d53d 46e4 7d3c 2ef9 a4bd
000002c0: 9625 113e 324f bebd 858c 633d 0fd1 42bc
000002d0: c093 463d 493f 613d cbcd 36be fdf3 f33c
000002e0: 1cd9 00b9 2022 1fbe d64e e33d 73e4 4e3b
000002f0: 1a96 83bd e7c6 00bc d06d ff3d fe97 a2bd
00000300: f8d9 c4bd bb9d 2abd 1596 17bd 1df7 983d
00000310: dcc8 06bd 5a31 a73d 70db 0fbe 35a0 b33c
00000320: 8811 0c3e 58bb 99bc dc62 113e 567e 8c3d
00000330: 6d2e 2dbe 182d d0bd 1721 163e 2e2b f2bc
00000340: fe73 2c3e d91b 30be a9b3 a6bd a8ac 173e
00000350: c654 343e 08ca 24be 92bd 6a3d 802d 32be
00000360: 9f30 03be f114 be3d 6f3e cfbd 8b77 5abc
00000370: f4ab 57bd 341b 23be 37f3 22be 1245 953d
00000380: 04af dc3d 65a9 19bd 169b 0c3e 7c7a 0dbe
00000390: 66dd 3abd 8c0a 1ebe 402f 203e 39f0 e03c
000003a0: f54e b73b bea6 b6bd a376 28be 8d5d 193e
000003b0: 4a5a 953d 7833 04bd b392 863b a5c9 4b3d
000003c0: c84d abbd fc74 2a3e 2bfe aa3c 1179 313b
000003d0: cbe5 d63d ad2e 00be 1d48 c73d 9dd5 a4bd
000003e0: a565 0dbe 3d7d 6bbd 5623 8fbd c25c 1f3e
000003f0: a5e1 843c 953f f9bd a1f7 0cbe f4b2 c1bd
-0.009150271 -0.030581638 -0.021522952 -0.18757027 -0.076184705 0.121170595 0.07709987 -0.17509124
0.030737324 0.14905418 -0.15392402 -0.031070707 -0.10836789 -0.017970635 -0.09045928 0.14148864
0.07842481 -0.04760979 -0.166456 -0.10742503 -0.03202952 0.034220032 -0.08704516 -0.12163263
-0.03506025 -0.15400405 0.039353073 -0.17212236 -0.043431617 -0.14411025 -0.08262698 -0.011435784
-0.08564179 -0.11585493 0.025888288 -0.07638789 0.015145046 0.05100769 -0.018711258 -0.14854231
-0.050379258 -0.017909203 0.052267056 -0.12682399 0.12886849 0.029740646 0.035517797 0.010328758
-0.029079404 0.0699024 0.13902183 -0.030062418 0.075549014 0.10297573 0.072516166 0.0008400076
0.0453514 0.023159306 0.111603156 -0.036283825 0.024627412 0.028948158 -0.16817778 0.04486396
-0.1283059 0.07243424 -0.04116679 0.031252597 -0.13817999 0.06628674 0.09802696 0.057155494
0.051855765 -0.11547275 0.14332427 0.03335812 -0.17250845 -0.0035362043 -0.009929525 0.060482364
0.03282185 0.123706505 -0.033935342 -0.044269163 -0.023308232 0.090945065 -0.17041837 0.12472967
-0.06736968 0.08139307 -0.118944034 -0.07889572 -0.006858814 -0.03391462 -0.12833224 -0.17286678
-0.1470378 0.16064775 0.091520414 -0.057236 0.10875837 -0.023919934 -0.009963913 -0.11333048
-0.10869778 0.13182938 0.17071752 -0.18109992 0.016055182 0.053007305 -0.102490395 -0.078378394
-0.13166565 0.042149287 0.16321364 0.056789283 -0.03457467 0.04168158 -0.12086289 -0.091036
0.06880825 0.14715293 -0.0052365763 -0.057933863 0.016931375 -0.17636345 0.10693183 -0.10802375
-0.059493512 -0.15234654 0.037298694 -0.08273362 0.012891033 -0.10768457 0.085229695 -0.13443089
-0.14691408 -0.1666469 0.14790842 0.07729762 -0.1298551 -0.043594267 0.120327115 0.05418358
0.16633938 -0.03210569 -0.023021927 0.12581998 -0.013245052 -0.15053688 -0.046167675 0.13098374
0.07324775 -0.041909255 -0.17313519 0.12390311 -0.038385108 -0.03711904 0.1605826 0.096332885
0.05466686 0.046442322 0.0033190849 9.662149e-06 -0.10553339 0.06267475 0.07395175 0.09572597
-0.089504674 -0.0031426107 -0.024610639 -0.11639819 0.038330592 0.10411975 0.015496319 -0.0805534
0.14174494 -0.09292449 0.05555393 -0.011890664 0.04848075 0.054991994 -0.17851941 0.029779429
-0.00012287911 -0.15540361 0.11099021 0.0031569272 -0.06425114 -0.007859922 0.12472117 -0.079391465
-0.09611887 -0.04165433 -0.037008364 0.07469008 -0.0329064 0.0816371 -0.14048553 0.021926979
0.13678563 -0.01876609 0.14197868 0.06860034 -0.16912241 -0.10164851 0.1466106 -0.029561605
0.16841123 -0.17198123 -0.08139736 0.14811957 0.17610464 -0.16092694 0.057309695 -0.1740017
-0.12811516 0.09281338 -0.1011933 -0.013334165 -0.05265422 -0.15928346 -0.15913092 0.07288565
0.10775569 -0.037515063 0.13731036 -0.13816255 -0.0456213 -0.15433711 0.15643024 0.027458297
0.005594129 -0.08918522 -0.16451506 0.14977093 0.07292612 -0.032275647 0.0041068434 0.04975285
-0.08364445 0.16646188 0.02087315 0.0027080218 0.10493048 -0.12517805 0.097305514 -0.08048556
-0.13808306 -0.057492483 -0.06989162 0.15562728 0.016220877 -0.121703304 -0.13766338 -0.09457961

convs.2.apply_func.0.bias f4 [32]
00000000: 3630 3a3e 31eb 073d 1f33 83bc 217f d6bd
00000010: 74e8 a0bd c1b9 d4bd 8925 db3c 89ad 2b3e
00000020: 3c35 72bd 0d09 b7bd 74c1 203d dfbf 1bbe
00000030: f81d 76bd 19e4 fbbd b436 e4bd d793 8cbd
00000040: 3090 0c3e 2235 a63d 9f61 493d 78e0 163e
00000050: a565 d33d 6f9c 08bb 7262 333d 341a 97bc
00000060: daad 953d 8c5c 223d d8ee 5f3d 5559 29be
00000070: 374c c4bc 41ad cc3d 7484 873d e17a 343d
0.18182454 0.03318328 -0.016015587 -0.10473467 -0.07856837 -0.10386992 0.026751297 0.16765417
-0.0591328 -0.08937273 0.03924699 -0.15209912 -0.060087174 -0.122993656 -0.11143246 -0.06864136
0.13726878 0.08115603 0.049165364 0.14734066 0.103221215 -0.0020845195 0.043795057 -0.018445112
0.0730855 0.03963904 0.05467114 -0.16537984 -0.023962123 0.09993983 0.0661706 0.0440625

convs.2.apply_func.2.weight f4 [32, 32]
00000000: 933a 93bd 2278 ea3d a701 1bbd ec79 c4bd
00000010: 6845 01be 14e3 cb3a 04f0 0ebe a77d e23d
00000020: f991 c03c 5f58 19bd b57a 1c3e 246f 4abb
00000030: 6047 ab3c e756 ed3d 78be f43c 59d6 653a
00000040: 5a93 253e 3805 0bbe b7f9 b23d 729d 373d
00000050: 2581 e0bc 4db8 6c3d 5d3e 6d3c 9a2b e1bd
00000060: edac f4bd 5fba b5bd 3269 233e cb5b 0d3e
00000070: 4fd8 9abc febc b63d b13e db3d f286 183e
00000080: 1cc9 3f3d bc1c 0a3e 9bf1 41bd 3a5f 183d
00000090: 6b91 dcbd c12c 17be b7f0 1cbd b0bb 11be
000000a0: cc7c 703d 9dce ed3d eb88 113d 1b43 2dbe
000000b0: dec4 993d 5e96 213e c11f e63c 1fe8 23be
000000c0: e4fd 13bd 21b6 2f3e bb44 cfbd baa7 0bbe
000000d0: dcc9 053e f691 0b3e 9d7c 083b db69 293e
000000e0: 3c2b 1cbe 74f3 de3d 38bf 2abe ef5a 5dbd
000000f0: 0a12 103e 9bf4 b1bd 7143 07be 6b7c fd3c
00000100: 4507 3a3e 4c12 85bd 3aae 20be 48a5 ac3d
00000110: e52f 143e e4f7 e7bd 555b b7bd e44c a23d
00000120: d2c8 223d 5d33 0bbe ee48 4dbd f87b 043d
00000130: 9785 3f3b 2243 ec3d f996 c33d 8775 973c
00000140: 50bb e03d b7fb 2abe 5e53 f83c 45ed a0bb
00000150: 28e0 02be cb30 ffbc 5314 8abd f5b5 3bbe
00000160: afdd 583c 054a 243e 2cb1 f3bd 1833 a6bc
00000170: f950 25bd ad35 cabd f00c a33d 4d50 2dbe
00000180: 309f 403e 39f8 08be 6358 aabb f29a e4bd
00000190: 5ef2 ebbd dcb9 0a3e 2092 42bd 3ad5 a03d
000001a0: 0183 45bd f9b3 a23c 4ac8 d2bd 1710 293e
000001b0: 035b 3fbe db44 b4bc 6965 283e cb9c e6bd
000001c0: 5229 e2bc 750d de3c 9b1c 213e ae66 563b
000001d0: 2518 11be ce97 0cbe ac94 863c 8d59 0c3e
000001e0: 8e52 20be e1a0 06be 94e7 04be bd26 1cbe
000001f0: 55ed e13c cc92 c73d a259 16be 967e 44bc
00000200: b183 783d 5db4 0c3d dc56 9b3d 2310 67bd
00000210: c7c3 4dbd 2531 f9bd 8b5b 21be 3e43 e6ba
00000220: 1ac0 283d d123 9f3c 7e8d 023e 76c0 1f3e
00000230: 95fb 093d f232 ccbd 5b75 cc3d 5c8c b63d
00000240: 86dd 2dbd 2905 24be a2ce 1fbe 104b 143e
00000250: 33f2 0cbe f9d5 153e 5fd4 24be 5241 bebd
00000260: aded 06bb a281 183e e0cb f53c fc6a 02be
00000270: ecb9 ec3d 4f2b d93c a7cd 07be 7fe7 433e
00000280: e4b1 1b3e e2a4 7ebc a987 75bc 6854 b13d
00000290: b4c2 0c3c a24f a3bc c6a6 583d fedc 273e
000002a0: 36f4 13bd 4301 db3d ad28 afbd e2c6 1fbe
000002b0: 2f0c 443c f96e e1bb ce7d 8a3d 3e60 1dbe
000002c0: 31d7 0fbe 2bd9 c73a bbd7 3a3d cca3 1fbe
000002d0: 5445 0fbe 8356 e0bd 3f4a cbbd 6d1a 063e
000002e0: c751 e53d 54ab 173e 39a2 1c3e 1a55 c73d
000002f0: bda8 d7bd d97a 30be 4be9 09be d65b 1fbe
00000300: 1dbf 213e 62b6 a8bd 6348 ce3d 9a3a 0abd
00000310: 03bb babd 6a26 403c cec6 37bd 87f7 493c
00000320: e579 433d 1de4 1fbe b3be 3abe e2c2 343e
00000330: 1561 1f3d 01e4 44bd e5e3 d73d 3c1b f6ba
00000340: 3a34 203d b785 0ebe 83b4 d1bd 6a83 453d
00000350: 25c7 863b df0c adbc 9455 a2bc 3acd 7e3d
00000360: 191e 043e c17f df3d 966a aabd ba69 b0bd
00000370: 718c cdbc a38a 44bd 78b6 26bd 8921 9837
00000380: 8996 f53d 1f23 edbd 0a22 223e 116a 0b3e
00000390: 4804 283e 7f26 f63d 0228 9c3d 2481 13be
000003a0: a1a2 093e 6bbe 33be f940 d33c 3a7d 323e
000003b0: 4bc9 ac3c 05fa 103c b70f e7bd 9a1b 1abe
000003c0: 1519 9b3c def5 733d 7a1c d7bd 1368 9b3c
000003d0: a9d4 f53b 1d8b d1bd 29e8 9f3c 6a56 16be
000003e0: 2c23 cc3d 3d97 eabd 83f0 043e ceaf 143e
000003f0: 5d23 d63d 3fd7 fdbd 8119 fc3d 34b5 2e3b
-0.071889065 0.11448695 -0.037843373 -0.09593567 -0.12624133 0.0015555345 -0.13958746 0.110591225
0.023507105 -0.037437793 0.15281184 -0.0030889 0.020908058 0.11588841 0.029875979 0.0008767597
0.16169491 -0.1357621 0.087390356 0.044827886 -0.02740533 0.05779295 0.014480201 -0.109946445
-0.119470455 -0.08873438 0.15958098 0.13804547 -0.018901972 0.08922766 0.10705317 0.14895228
0.046822652 0.13487524 -0.047349554 0.03720019 -0.10769924 -0.14763166 -0.0383155 -0.14231753
0.058712766 0.11611674 0.035530966 -0.1692013 0.075082526 0.15780017 0.028091313 -0.16006516
-0.0361308 0.1715932 -0.10120531 -0.13638201 0.13065284 0.13629898 0.0020826228 0.16544287
-0.15250868 0.10886279 -0.16674507 -0.0540418 0.14069381 -0.08689233 -0.1320932 0.030943116
0.18166836 -0.064976305 -0.15691462 0.084299624 0.14471395 -0.11326578 -0.08952967 0.07924822
0.0397423 -0.13593812 -0.05011838 0.03234479 0.0029223913 0.11536242 0.0955028 0.018488659
0.10973227 -0.16697584 0.03031319 -0.004911097 -0.12780821 -0.031151196 -0.06742158 -0.1833113
0.013236447 0.16043861 -0.11899027 -0.020288035 -0.040360425 -0.09873519 0.07961452 -0.16925164
0.18810725 -0.1337594 -0.005198525 -0.11162366 -0.11520837 0.13547462 -0.047502637 0.0785317
-0.04822064 0.019861208 -0.10292108 0.16510044 -0.18687062 -0.02200549 0.16444935 -0.11260375
-0.027607594 0.027106026 0.15733568 0.003271501 -0.14169367 -0.13729784 0.016428314 0.13706036
-0.15656492 -0.13147308 -0.12978965 -0.15249152 0.027578989 0.09744796 -0.1468263 -0.011993071
0.060672466 0.034351695 0.075849265 -0.056411874 -0.050235536 -0.12167577 -0.15757577 -0.0017567647
0.041198827 0.019426258 0.12749287 0.15600762 0.033687193 -0.099706545 0.09983321 0.0891349
-0.04244759 -0.16017593 -0.15606168 0.14481759 -0.13764267 0.14632405 -0.16096638 -0.092898026
-0.0020588443 0.14893201 0.030004442 -0.12736124 0.11558899 0.026509909 -0.13262044 0.19131278
0.15204579 -0.015542241 -0.014985957 0.08658677 0.008591343 -0.019935433 0.052893423 0.16392896
-0.03612157 0.106936 -0.0855268 -0.15603212 0.011965795 -0.006879684 0.067622766 -0.15368745
-0.14046933 0.0015247216 0.045615893 -0.15589827 -0.1399129 -0.10954001 -0.09926271 0.13096018
0.111972384 0.1481145 0.15296258 0.09733029 -0.10530231 -0.17234363 -0.134679 -0.15562376
0.1579556 -0.08237912 0.100724004 -0.033747293 -0.09117701 0.011727909 -0.04486733 0.0123270815
0.04772367 -0.15614362 -0.18236808 0.17652467 0.038910944 -0.048069004 0.10541514 -0.0018776427
0.039112307 -0.13918196 -0.10239508 0.04822103 0.0041130953 -0.021124301 -0.019816197 0.062207438
0.12902106 0.10913039 -0.08321111 -0.08613916 -0.025091382 -0.047983777 -0.04070136 1.8135428e-05
0.11991603 -0.115789644 0.15833297 0.1361468 0.16407883 0.12019061 0.076248184 -0.14404732
0.13440944 -0.17553107 0.025787817 0.17430583 0.021092078 0.008848672 -0.11282294 -0.15049592
0.018932858 0.05956065 -0.10503478 0.018970525 0.0075021577 -0.10231612 0.019519882 -0.14681402
0.09967646 -0.11454628 0.12982373 0.14520189 0.10455964 -0.123945706 0.12309552 0.0026658298

convs.2.apply_func.2.bias f4 [32]
00000000: 2a8c 05bc 5807 843c 23e1 b13c aea0 fd3d
00000010: e976 0a3e 802e 7b3c 97bd 4fbd 8536 b4bd
00000020: 9d91 bb3d 336a 9e3d d080 293e 5b9a 18be
00000030: ad31 0abe cca6 d8bd 17cb 9f3d f6c3 0c3e
00000040: cd72 69bc 25c2 08be 0278 e63c 3e99 15be
00000050: 9548 e73d 37e0 07be 2960 d23c 4906 7b3c
00000060: 2242 b63d d8ce fabd 817d a23d 40dc 313c
00000070: 4fef b03c 1c65 e9bd 3318 3a3e c708 98bc
-0.0081510935 0.016116783 0.021713799 0.12384163 0.13521923 0.015330911 -0.050717916 -0.08799461
0.09158633 0.077351 0.16553044 -0.14902632 -0.13495512 -0.10578689 0.07802408 0.13746628
-0.014248562 -0.1335531 0.028133396 -0.14609239 0.11293141 -0.13269125 0.025680618 0.015321323
0.088993326 -0.122464836 0.07934094 0.010855734 0.021598486 -0.11396238 0.18173294 -0.018558873

bns.0.weight f4 [32]
00000000: feff 7f3f feff 7f3f b00b 823f 10c3 803f
00000010: fc09 823f feff 7f3f feff 7f3f b3b5 813f
00000020: feff 7f3f feff 7f3f b3b5 813f feff 7f3f
00000030: feff 7f3f b3b5 813f 11c3 803f 10c3 803f
00000040: 2d08 823f feff 7f3f feff 7f3f feff 7f3f
00000050: b1b5 813f db79 7e3f feff 7f3f feff 7f3f
00000060: b3b5 813f feff 7f3f feff 7f3f db79 7e3f
00000070: 10c3 803f feff 7f3f feff 7f3f b3b5 813f
0.9999999 0.9999999 1.0159817 1.0059528 1.0159297 0.9999999 0.9999999 1.0133575
0.9999999 0.9999999 1.0133575 0.9999999 0.9999999 1.0133575 1.005953 1.0059528
1.0158745 0.9999999 0.9999999 0.9999999 1.0133573 0.99404687 0.9999999 0.9999999
1.0133575 0.9999999 0.9999999 0.99404687 1.0059528 0.9999999 0.9999999 1.0133575

bns.0.bias f4 [32]
00000000: a5d9 5abc 62d9 5abc 0000 0000 9511 c3bb
00000010: 0000 0000 7cd9 5abc 0000 0000 0000 0000
00000020: 91d9 5abc c3d9 5abc e711 c3bb 0000 0000
00000030: 0524 83bc 0000 0000 b511 c3bb 0000 0000
00000040: a911 c3bb 0000 0000 96d9 5abc bc11 c33b
00000050: 9cd9 5abc 5cae 80bc 0000 0000 0000 0000
00000060: 0000 0000 0000 0000 eb11 c33b 0000 0000
00000070: 0000 0000 0000 0000 9d11 c33b 0000 0000
-0.013357555 -0.013357492 0.0 -0.0059530237 0.0 -0.013357516 0.0 0.0
-0.013357536 -0.0133575825 -0.005953062 0.0 -0.016008386 0.0 -0.0059530386 0.0
-0.005953033 0.0 -0.013357541 0.005953042 -0.013357546 -0.015708141 0.0 0.0
0.0 0.0 0.0059530637 0.0 0.0 0.0 0.0059530274 0.0

bns.0.running_mean f4 [32]
00000000: 0b2f 4a40 c994 5940 1853 aa41 4597 3740
00000010: d023 0442 cd86 c73f c3e4 ca3c 7b06 3740
00000020: f7f9 6442 717f 5842 af16 6640 3b10 3942
00000030: a6f9 d841 dd23 8541 692c dc41 da86 1742
00000040: babc 6542 8624 e83b f15a 0941 11bc 3240
00000050: e443 9341 4080 1042 6dc0 8c3e f3c7 1e41
00000060: 7bde d040 53c6 4b40 38fd 4242 c4ed 903e
00000070: 4496 8c41 b7d0 b540 4283 fe3e ef7e 7e40
3.1591213 3.3997061 21.290573 2.8686078 33.034973 1.5588013 0.024767285 2.8597705
57.244106 54.124454 3.5951345 46.26585 27.121899 16.642511 27.521685 37.88169
57.434303 0.007084432 8.5847025 2.7927287 18.40815 36.125244 0.2749056 9.923816
6.5271583 3.1839797 48.747284 0.283064 17.573372 5.681728 0.49709517 3.9764974

bns.0.running_var f4 [32]
00000000: 0f69 2843 fb62 3543 ca18 a544 abbd 0543
00000010: 9bb8 5645 bb30 6442 5a77 c53f b492 f142
00000020: 0436 3c46 235c d945 9f30 3f43 eb4d ae45
00000030: 3dfe 2345 d6f5 6544 b6a4 da44 d26f 9745
00000040: f17e 1546 fff8 8d3f ee17 0e44 bb73 1243
00000050: 74f8 5f44 a7dd 4045 e0b9 5841 22bb 1244
00000060: 46b1 9a43 8cc5 3443 93ac 0746 cc0f 9e41
00000070: 0a46 7444 7584 ae43 25e2 8c41 3301 7843
168.41039 181.38664 1320.7747 133.74089 3435.5378 57.04759 1.5427048 120.78653
12045.504 6955.517 191.18993 5577.7397 2623.89 919.8412 1749.1472 4845.9775
9567.735 1.1091613 568.3739 146.45207 895.8821 3085.8533 13.54538 586.92395
309.38495 180.77167 8683.144 19.757713 977.09436 349.03482 17.610422 248.00468

bns.1.weight f4 [32]
00000000: 11c3 803f 10c3 803f feff 7f3f feff 7f3f
00000010: 240c 823f feff 7f3f feff 7f3f feff 7f3f
00000020: 270a 823f b0b5 813f feff 7f3f feff 7f3f
00000030: 10c3 803f 10c3 803f feff 7f3f feff 7f3f
00000040: feff 7f3f feff 7f3f feff 7f3f afb5 813f
00000050: feff 7f3f feff 7f3f b0b5 813f feff 7f3f
00000060: feff 7f3f a1fb 813f feff 7f3f feff 7f3f
00000070: b1b5 813f aa04 823f 11c3 803f b1b5 813f
1.005953 1.0059528 0.9999999 0.9999999 1.0159955 0.9999999 0.9999999 0.9999999
1.0159348 1.0133572 0.9999999 0.9999999 1.0059528 1.0059528 0.9999999 0.9999999
0.9999999 0.9999999 0.9999999 1.013357 0.9999999 0.9999999 1.0133572 0.9999999
0.9999999 1.0154916 0.9999999 0.9999999 1.0133573 1.0157673 1.005953 1.0133573

bns.1.bias f4 [32]
00000000: 0000 0000 0000 0000 0000 0000 0000 0000
00000010: 1287 81bc 0000 0000 0000 0000 2211 c3bb
00000020: db26 83bc 0000 0000 01da 5abc 0000 0000
00000030: 0000 0000 e8d9 5a3c 4811 c3bb 0000 0000
00000040: 0000 0000 0000 0000 0000 0000 0000 0000
00000050: 0000 0000 5111 c3bb 0f8e 82bc 0000 0000
00000060: d8aa 82bc 6a66 82bc 0000 0000 0000 0000
00000070: c2d9 5abc 0000 0000 0000 0000 2505 81bc
0.0 0.0 0.0 0.0 -0.015811477 0.0 0.0 -0.00595297
-0.016009739 0.0 -0.01335764 0.0 0.0 0.013357617 -0.005952988 0.0
0.0 0.0 0.0 0.0 0.0 -0.005952992 -0.01593688 0.0
-0.015950605 -0.015917975 0.0 0.0 -0.013357582 0.0 0.0 -0.015749523

bns.1.running_mean f4 [32]
00000000: fbf2 f53e 11c8 3b40 4d3c 4e3f ef12 1e40
00000010: 1b51 8f3f 8733 ac3e 208a 033f b131 ab3f
00000020: 8b85 153f a198 283f 0382 1f40 75de 853f
00000030: 0441 9d3f 5890 b93e 0a61 113f 91cc 263e
00000040: b6b2 093e 3d74 7340 9dd7 5d40 6994 7040
00000050: 731d 1540 29ac e03f 2935 8540 fb92 9a3f
00000060: ebd7 1d3e ad44 1840 0fc6 d43d 18cc 6840
00000070: 5585 f83f 947d 4e3e a777 c73f 77bb 3f3f
0.48036942 2.934086 0.8056076 2.4699056 1.1196626 0.33633062 0.5138264 1.337454
0.58406895 0.65857893 2.4923103 1.0458513 1.2285466 0.36242938 0.56788695 0.16288973
0.13447079 3.8039696 3.466285 3.7590582 2.3299224 1.7552539 4.1627393 1.2076105
0.15414397 2.3791916 0.10389339 3.637457 1.941569 0.20165092 1.558339 0.74895424

bns.1.running_var f4 [32]
00000000: b5ec 4541 981a 8d43 48cd d741 cd43 a042
00000010: f569 2742 966e 9241 937f 0142 4fff b442
00000020: 62af 0e41 9c7f 9a41 c594 5d43 dad8 1e42
00000030: 9de8 a642 47b6 d540 5e8d 8041 278b 6740
00000040: 3451 9f40 b56e b143 cb95 9443 e7a2 ca43
00000050: 7d3e 3c43 21a6 2d43 e9f0 7d43 9f63 6042
00000060: 537e 4c40 2d61 0743 2d97 b040 eae6 9743
00000070: 884b aa42 7c5b f73f b07d 3d42 cca0 0242
12.37029 282.20776 26.975235 80.13242 41.853474 18.303997 32.374584 90.49865
8.917818 19.31231 221.58113 39.71177 83.45432 6.6785007 16.069027 3.6178682
4.9786625 354.8649 297.17026 405.27267 188.2441 173.64894 253.94106 56.097286
3.1952102 135.3796 5.518454 303.80402 85.14752 1.9324794 47.37274 32.65703

bns.2.weight f4 [32]
00000000: feff 7f3f feff 7f3f feff 7f3f 3b09 823f
00000010: 12ff 813f 10c3 803f 920c 823f feff 7f3f
00000020: 0fc3 803f a8b5 813f 6f03 823f feff 7f3f
00000030: feff 7f3f a9b5 813f feff 7f3f feff 7f3f
00000040: feff 7f3f 0fc3 803f feff 7f3f feff 7f3f
00000050: feff 7f3f feff 7f3f feff 7f3f acb5 813f
00000060: feff 7f3f feff 7f3f feff 7f3f abb5 813f
00000070: feff 7f3f feff 7f3f 10c3 803f 26f4 813f
0.9999999 0.9999999 0.9999999 1.0159067 1.0155966 1.0059528 1.0160086 0.9999999
1.0059527 1.0133562 1.0157298 0.9999999 0.9999999 1.0133563 0.9999999 0.9999999
0.9999999 1.0059527 0.9999999 0.9999999 0.9999999 0.9999999 0.9999999 1.0133567
0.9999999 0.9999999 0.9999999 1.0133566 0.9999999 0.9999999 1.0059528 1.0152633

bns.2.bias f4 [32]
00000000: 0000 0000 83d7 5abc 0000 0000 1a06 83bc
00000010: cc0f c3bb 0000 0000 0b10 c3bb 88d7 5abc
00000020: db0f c3bb 0000 0000 22e6 82bc add7 5abc
00000030: 0000 0000 b7d7 5abc 0000 0000 0000 0000
00000040: 0000 0000 f40f c3bb 0000 0000 0000 0000
00000050: 0000 0000 89d7 5abc 0000 0000 a40f c3bb
00000060: 0000 0000 0000 0000 0000 0000 b0d7 5abc
00000070: 0000 0000 0000 0000 fa0f c3bb 1c9b 82bc
0.0 -0.013357046 0.0 -0.01599412 -0.005952811 0.0 -0.00595284 -0.013357051
-0.005952818 0.0 -0.015978877 -0.013357085 0.0 -0.0133570945 0.0 0.0
0.0 -0.0059528295 0.0 0.0 0.0 -0.013357052 0.0 -0.0059527922
0.0 0.0 0.0 -0.013357088 0.0 0.0 -0.0059528323 -0.015943103

bns.2.running_mean f4 [32]
00000000: 64a9 8240 b75d 6d40 8fb9 363f 9370 6a3e
00000010: 6e82 7b3f f0b9 d53e b490 ad3e ff26 0440
00000020: 2d6e de3f 8e81 473f 3b4f 513e c77e c340
00000030: 67eb 673e 2a9a 2740 e57e 4e3f 74a9 fd3f
00000040: 2945 1540 3a89 013e 751d d53f 8c51 773e
00000050: 7b8b ad3e d358 1840 99ca 8f3f 7a9c cb3e
00000060: 65fb 4640 bd5f da3f 633c e23f c84b 6b3f
00000070: 94cc 443e d317 973e 064e 103f b12d b93f
4.0831776 3.708845 0.7137689 0.22894506 0.98245895 0.41743422 0.33899462 2.0648801
1.7377373 0.7793206 0.2044038 6.1092257 0.22648393 2.6187844 0.80662376 1.9817338
2.3323462 0.12650004 1.6649615 0.24152201 0.33895478 2.3804214 1.1233703 0.3976782
3.109094 1.7060467 1.7674679 0.9191251 0.19218665 0.29510364 0.56369054 1.4467069
